rq1_cnn_best.pth (torch, 518771 bytes, 22 tensors)

conv1.weight f4 [32, 1, 3, 3]
-0.06640893 -0.2703539 0.20130128 0.10266306 -0.0358415 0.24856257 0.25556076 -0.13825212
0.10205415 -0.22159807 0.3337675 0.30335483 0.1119682 -0.18552771 -0.024630338 -0.17325963
0.007727235 -0.102548644 -0.010230545 -0.31657216 -0.31944987 -0.28024793 -0.25574055 -0.21070443
-0.15552656 -0.22931053 -0.1903687 0.3043585 0.31043667 -0.3226857 0.2580541 0.11699742
0.09941358 0.078860976 0.134961 -0.1976494 0.19303502 -0.21607104 0.28256965 -0.19419414
0.3250257 -0.24326111 -0.16556005 0.0561674 -0.23167944 -0.1069369 0.06416647 0.23446679
0.041833162 -0.26493448 -0.031616393 0.29548138 -0.13304457 0.16098614 -0.24751592 0.3210501
-0.20899935 -0.09384752 0.11406094 0.22497806 -0.2427122 0.17694053 0.28783545 -0.2708241
-0.22410353 0.2789607 -0.28404826 -0.11869112 -0.061121944 0.1758288 0.087066226 0.16616654
0.14671628 -0.15065473 -0.08653567 -0.0231655 0.01915729 0.18795696 -0.2917999 0.08947242
0.0567545 -0.1451752 0.2759489 -0.08936275 -0.08610048 0.17288913 0.31533337 0.18717211
0.075580485 0.045168113 -0.1471623 0.17924637 0.33447084 0.08763022 0.14168045 0.25219524
0.22246562 -0.09045124 0.2249056 0.23173691 -0.015848493 0.017626269 0.26998115 0.16199835
-0.12268331 0.1899744 -0.0028956372 -0.16020302 0.1992679 -0.20687038 -0.23267542 0.27263522
-0.06363201 0.29022813 0.074213065 -0.031253383 -0.25901887 -0.106775746 0.17027444 0.15652585
-0.09767871 -0.16485322 0.16743396 -0.009515881 -0.23024693 -0.23019561 -0.008056138 0.10636832
-0.25329044 -0.23484722 -0.011271357 -0.088681705 0.010654544 0.25292778 -0.2739439 0.1630868
0.1354979 0.224439 0.322928 0.09623656 0.2090579 0.24524516 0.057905227 0.067923926
0.020201499 0.1071826 -0.022943994 -0.0781293 -0.31896585 -0.22765678 0.15447892 -0.23639272
-0.29836193 -0.1964063 -0.114598885 -0.015749346 0.26290452 -0.0716298 0.046444084 0.08354558
-0.293053 -0.12281658 -0.095235914 -0.0057026614 0.24486776 0.04196957 0.11677322 -0.1620869
-0.2051843 0.11226538 0.10929074 -0.23020838 0.26083532 0.2568488 -0.054498732 -0.115340896
-0.051476747 -0.2579118 -0.2463016 -0.2592556 -0.31782806 -0.3239784 -0.112110674 -0.033513494
0.13282485 -0.32221335 -0.08043082 -0.30348954 -0.3116762 -0.17960283 -0.077109925 0.05708973
0.0023443834 0.04539323 0.21424179 0.13704677 0.18284565 -0.16147323 0.16710648 0.16183603
-0.15539826 -0.14788248 0.030768484 0.09487259 0.24291252 -0.027665209 0.10496877 0.14400552
0.20380431 -0.009389119 -0.23433782 -0.26867566 0.33527893 0.29101926 -0.32118073 0.20697285
-0.23774809 -0.1611473 -0.24171546 0.32850742 -0.008352957 0.05769713 0.084113374 0.18771335
0.22533424 -0.15833127 -0.124164976 -0.2636949 0.29406855 0.10035378 0.25627747 -0.28217494
0.2080488 -0.08143571 0.026079299 -0.08413319 0.03925505 0.03210467 -0.17372893 0.0390609
0.24137889 -0.2319652 0.117107175 0.20473696 -0.33059788 -0.130691 0.18683064 0.15183306
-0.19012964 -0.039745536 -0.06726819 0.19649866 -0.2039095 0.2813656 -0.14040078 0.29771084
00000000: 6801 88bd d46b 8abe ec21 4e3e 0341 d23d
00000010: 89ce 12bd 3087 7e3e dcd8 823e f791 0dbe
00000020: c401 d13d 9bea 62be 93e3 aa3e 5351 9b3e
00000030: 954f e53d fafa 3dbe 90c5 c9bc f96a 31be
00000040: bf34 fd3b 0605 d2bd 049e 27bc bf15 a2be
00000050: ef8e a3be a87c 8fbe 6df0 82be e7c2 57be
00000060: 5b42 1fbe 61d0 6abe 03f0 42be e1d4 9b3e
00000070: 8ef1 9e3e 0f37 a5be ab1f 843e 589c ef3d
00000080: 5999 cb3d dd81 a13d 3733 0a3e 9b64 4abe
00000090: f9aa 453e ba41 5dbe f8ac 903e d4da 46be
000000a0: c569 a63e 7119 79be 9388 29be ca0f 663d
000000b0: 603d 6dbe bc01 dbbd b669 833d 1018 703e
000000c0: 4059 2b3d 7ea5 87be 3180 01bd 5649 973e
000000d0: d63c 08be 8dd9 243e d074 7dbe ae60 a43e
000000e0: ed03 56be 2133 c0bd c898 e93d a660 663e
000000f0: 8c89 78be e62f 353e 2b5f 933e 75a9 8abe
00000100: 657b 65be f0d3 8e3e c66e 91be 5414 f3bd
00000110: 015b 7abd 770c 343e c74f b23d 9027 2a3e
00000120: cb3c 163e 3c45 1abe 9d39 b1bd 93c5 bdbc
00000130: c0ef 9c3c ca77 403e cc66 95be 513d b73d
00000140: 6877 683d cfa8 14be 2d49 8d3e d103 b7bd
00000150: 7355 b0bd d909 313e 6073 a13e 0caa 3f3e
00000160: f1c9 9a3d 3302 393d b7b1 16be 5c8c 373e
00000170: c33f ab3e 7977 b33d ae14 113e bc1f 813e
00000180: 07ce 633e 803e b9bd a74d 663e 714c 6d3e
00000190: b3d4 81bc f764 903c f83a 8a3e e5e2 253e
000001a0: 6341 fbbd a688 423e bbc4 3dbb 430c 24be
000001b0: e20c 4c3e d4d5 53be 7742 6ebe d896 8b3e
000001c0: 8051 82bd c898 943e 05fd 973d 8c03 00bd
000001d0: 1f9e 84be 3ead dabd 6c5c 2e3e 5048 203e
000001e0: c70b c8bd 48cf 28be cf73 2b3e 7fe8 1bbc
000001f0: dac5 6bbe 66b8 6bbe e4fd 03bc a2d7 d93d
00000200: 49af 81be ca7b 70be 7fab 38bc c19e b5bd
00000210: 6690 2e3c c07f 813e 6042 8cbe 3a00 273e
00000220: f6bf 0a3e 56d3 653e d256 a53e ac17 c53d
00000230: 4613 563e 8c21 7b3e 082e 6d3d b31b 8b3d
00000240: 9d7d a53c 8d82 db3d 0bf5 bbbc 4102 a0bd
00000250: 7e4f a3be dc1e 69be b92f 1e3e ef10 72be
00000260: e5c2 98be bc1e 49be d2b2 eabd c604 81bc
00000270: 6c9b 863e a5b2 92bd 273c 3e3d f219 ab3d
00000280: 0b0b 96be 4287 fbbd 0c0b c3bd 64dd babb
00000290: 9dbe 7a3e 49e8 2b3d cc26 ef3d 1cfa 25be
000002a0: d51b 52be 64eb e53d d3d3 df3d bfbb 6bbe
000002b0: 358c 853e b081 833e 103a 5fbd d937 ecbd
000002c0: 48d9 52bd 040d 84be 7d36 7cbe 26bd 84be
000002d0: 5cba a2be 7fe0 a5be 489a e5bd 7245 09bd
000002e0: 3d03 083e 26f9 a4be eab8 a4bd fb62 9bbe
000002f0: 0694 9fbe cee9 37be cfeb 9dbd ecd6 693d
00000300: 3aa4 193b 40ee 393d 3362 5b3e fd55 0c3e
00000310: e43b 3b3e 3d59 25be f61d 2b3e 58b8 253e
00000320: b920 1fbe 816e 17be 300e fc3c 8f4c c23d
00000330: 0fbe 783e 26a2 e2bc def9 d63d 2f76 133e
00000340: 14b2 503e d2d4 19bc 41f6 6fbe db8f 89be
00000350: aea9 ab3e 7a00 953e cd71 a4be b1f0 533e
00000360: 3c74 73be cc03 25be 4284 77be 2032 a83e
00000370: d7da 08bc d353 6c3d a243 ac3d ee37 403e
00000380: 05be 663e 9821 22be 354a febd 0503 87be
00000390: 2790 963e 4886 cd3d cd36 833e 3c79 90be
000003a0: bf0a 553e c4c7 a6bd 41a4 d53c 064e acbd
000003b0: e7c9 203d 3080 033d ffe5 31be 53fe 1f3d
000003c0: 072c 773e 4988 6dbe e3d5 ef3d 91a6 513e
000003d0: 2044 a9be ddd3 05be 8850 3f3e 207a 1b3e
000003e0: 58b1 42be 37cc 22bd e8c3 89bd f236 493e
000003f0: a7cd 50be 270f 903e 39c5 0fbe 8e6d 983e

conv1.bias f4 [32]
-0.22279412 0.19923007 0.19044665 0.28722793 0.12518983 0.027021129 0.08675533 -0.10051182
-0.21515453 -0.33412737 0.18970217 -0.2785085 -0.1364155 -0.1405607 -0.12789752 0.1927263
0.0034767878 -0.093458265 -0.16491443 0.12031907 0.010773599 0.26546338 -0.052029192 0.27063796
-0.06372046 -0.07773598 0.094604485 -0.2770374 -0.20093976 -0.25954244 -0.0032110403 0.009531495
00000000: 2424 64be f802 4c3e 7204 433e 8a0f 933e
00000010: c331 003e 6a5b dd3c c7ac b13d 24d9 cdbd
00000020: 7851 5cbe be12 abbe 4941 423e ab98 8ebe
00000030: 81b0 0bbe 25ef 0fbe 91f7 02be 0b5a 453e
00000040: d2da 633b 0c67 bfbd 54df 28be d869 f63d
00000050: c083 303c d1ea 873e 901c 55bd 0f91 8a3e
00000060: df7f 82bd 0b34 9fbd ffbf c13d d9d7 8dbe
00000070: 27c3 4dbe bfe2 84be 5170 52bb fd29 1c3c

bn1.weight f4 [32]
0.99719286 1.005921 0.99958396 0.9996582 1.003304 0.9960693 1.0001969 0.9947308
0.9993537 1.0006294 0.9983692 1.0021367 0.9976693 1.002374 0.9948302 0.99767655
1.0009649 0.9986018 0.99810976 1.0030574 1.0029035 0.9993187 1.0017273 0.99323624
1.007921 1.002242 1.0037851 0.99831736 0.9972817 0.997704 0.99702764 1.0009444
00000000: 0848 7f3f 05c2 803f bce4 7f3f 9ae9 7f3f
00000010: 446c 803f 66fe 7e3f 7406 803f ada6 7e3f
00000020: a5d5 7f3f a014 803f 2095 7f3f 0446 803f
00000030: 4167 7f3f cb4d 803f 31ad 7e3f bb67 7f3f
00000040: 9e1f 803f 5ea4 7f3f 1f84 7f3f 2f64 803f
00000050: 245f 803f 5ad3 7f3f 9a38 803f bb44 7e3f
00000060: 8e03 813f 7749 803f 087c 803f ba91 7f3f
00000070: da4d 7f3f 8869 7f3f 343d 7f3f f21e 803f

bn1.bias f4 [32]
-0.0022821443 0.0096639 -0.006297871 0.00018578366 0.007249704 -0.0021698524 0.0033457442 -0.0030607963
0.008241118 0.0014620026 0.0013203167 0.0026597364 -0.0036991641 -0.0019479195 0.00042409255 0.00084374665
-0.0032347864 -0.00077934784 0.002807286 -0.003913927 -0.004840822 -0.0015233358 0.0035765406 -0.0036444266
0.0022470076 0.0036428042 0.0019607805 -0.004284202 0.0017879859 0.0025734738 0.009387 -0.0005707818
00000000: 0790 15bb 5655 1e3c 5f5e cebb ecce 4239
00000010: ed8e ed3b 1534 0ebb 4644 5b3b a497 48bb
00000020: c105 073c aba0 bf3a 7a0e ad3a f94e 2e3b
00000030: ad6d 72bb 5551 ffba bd58 de39 e12e 5d3a
00000040: b6fe 53bb 264d 4cba 72fa 373b 6640 80bb
00000050: c29f 9ebb abaa c7ba 6564 6a3b 55d7 6ebb
00000060: 8842 133b 1dbc 6e3b 7080 003b 7e62 8cbb
00000070: da5a ea3a baa7 283b efcb 193c 85a0 15ba

bn1.running_mean f4 [32]
-15.969196 -1.6965687 78.740875 -31.075146 7.9372783 -10.015254 -13.40776 9.993313
1.7091894 -30.53441 -47.808575 -23.055676 -1.9327235 13.886055 19.59424 -60.497284
36.151447 16.624348 -6.4059043 28.10121 66.53237 -8.729715 -18.883333 -13.234171
-9.7190695 1.5657632 0.06668267 0.36159465 3.605872 -8.520365 9.072518 -0.37090212
00000000: d481 7fc1 2a29 d9bf 547b 9d42 e699 f8c1
00000010: 2ffe fd40 7b3e 20c1 2f86 56c1 9ce4 1f41
00000020: b8c6 da3f 7946 f4c1 fb3b 3fc2 0672 b8c1
00000030: 7c63 f7bf 482d 5e41 01c1 9c41 38fd 71c2
00000040: 159b 1042 aafe 8441 2bfd ccc0 47cf e041
00000050: 9310 8542 eaac 0bc1 1111 97c1 2abf 53c1
00000060: 4f81 1bc1 ee6a c83f ec90 883d ef22 b93e
00000070: 9bc6 6640 6a53 08c1 0929 1141 e2e6 bdbe

bn1.running_var f4 [32]
51.422615 16.659279 636.5403 138.65834 20.381083 27.423166 57.582024 44.03164
6.915143 102.259926 253.30818 80.26856 26.740305 33.86289 63.07045 387.08185
150.6854 40.432087 11.897121 109.063065 461.66974 13.035781 39.97344 44.15789
31.634983 12.04286 16.180847 14.137034 14.672558 25.287886 30.415083 13.355875
00000000: c2b0 4d42 3446 8541 9422 1f44 89a8 0a43
00000010: 750c a341 a562 db41 fe53 6642 6620 3042
00000020: da48 dd40 1585 cc42 e54e 7d43 8189 a042
00000030: 25ec d541 9973 0742 2448 7c42 7a8a c143
00000040: 76af 1643 75ba 2142 9c5a 3e41 4a20 da42
00000050: bad5 e643 8f92 5041 cde4 1f42 aea1 3042
00000060: 7214 fd41 8eaf 4041 6072 8141 4b31 6241
00000070: ccc2 6a41 974d ca41 1752 f341 aab1 5541

conv2.weight f4 [64, 32, 3, 3]
-0.020993011 -0.020977436 -0.057955105 0.01563365 -0.022718223 -0.025079228 0.021445733 -0.037831627
-0.037150297 0.054248698 -0.049434647 0.0056739226 -0.011666207 -0.027634732 -0.03609696 -0.015628101
-0.007404798 -0.054607023 0.055730052 -0.014721517 0.015696568 0.0027570217 -0.025948 0.054642137
0.009232069 0.03967616 -0.017591974 -0.035186168 0.03435451 -0.03171364 -0.056049846 -0.056283362
-0.03287854 -0.04431562 0.030927742 0.050299168 0.034707177 -0.04384342 0.016990785 0.02462456
-0.033045918 0.02538541 0.029066553 0.012389376 -0.03983888 -0.024703572 0.037742883 0.00071747403
-0.050599717 0.002008008 0.0025814772 0.05174054 -0.031987935 0.0060323533 0.019796183 0.0007947401
0.034383323 0.014712123 0.057529263 -0.036919698 0.004925879 -0.051113367 -0.02458256 0.018457212
-0.056926236 0.019677138 0.05695131 0.018500336 0.018348215 -0.028755726 0.010010435 -0.05765417
-0.04984787 0.011193339 -0.05345129 0.012839678 -0.020038906 -0.0124532515 0.02441218 -0.024475073
0.049959384 -0.0023842112 0.0445726 0.026699552 0.0124804275 0.048113305 -0.035016466 0.024405869
-0.006855433 -0.039678384 0.016814115 0.009096854 0.00977318 0.03251058 -0.015609338 0.039296374
-0.008225852 0.0075391964 0.012698592 0.02105221 -0.035666693 0.045594633 -0.03595284 -0.009708833
0.0017673732 0.0052765105 0.034638762 -0.059151646 -0.0021814597 -0.017628971 -0.042881165 -0.039051585
-0.010019901 -0.042649813 0.03763612 -0.0059235976 -0.032112405 -0.03257457 0.021301638 0.04291535
-0.009185475 -0.024972739 -0.036911674 0.0009635213 0.0021210567 -0.05571024 -0.03917071 0.0076935524
-0.026119072 -0.054342106 0.022017052 0.043419905 -0.059475474 0.031148057 -0.021348627 0.031371184
-0.026081562 0.039906632 0.037222777 0.047189012 0.037122007 0.018326847 -0.054898735 0.056007273
-0.044676386 0.00927668 -0.009039558 0.026488531 -0.0073073604 -0.015644962 0.022714656 -0.05349209
0.047159012 -0.026292276 -0.01783328 -0.042792145 -0.0027694746 -0.06171836 0.032623187 0.023559941
0.032265447 -0.0091346875 -0.04010145 0.010190036 -0.048806008 -0.039429948 -0.03696206 -0.036363635
-0.01029061 0.05097399 -0.009585305 0.046806313 -0.029163374 0.050958045 0.010878271 -0.017645484
-0.042308684 0.0376023 -0.024529375 -0.049497675 -0.0081860395 0.011610134 -0.02815638 0.04137478
-0.03631937 -0.05690865 -0.002664157 -0.027828317 0.05594215 -0.018358272 -0.013981043 0.030973801
0.052512757 0.012632679 -0.004010483 -0.05762125 0.042473562 0.013124198 0.030482229 -0.035846762
0.025787141 -0.041970383 0.029518532 0.053576875 0.045003247 0.0036446038 0.04469608 0.0305419
0.051851116 0.047820378 0.047024876 0.02845189 -0.040432252 0.017622422 0.056917273 -0.052403215
0.023283446 0.003760147 -0.022653418 0.00027365648 0.027030786 0.002101639 -0.03430923 -0.019617373
-0.027978359 0.012926979 -0.045580633 -0.0035418523 0.038262725 -0.046669703 0.021892661 0.031335544
0.06384639 -0.048771698 0.005870495 0.03540803 -0.041132893 -0.053652484 -0.0015153706 -0.03912615
0.014121468 -0.04597397 -0.03262306 -0.049991135 -0.06405801 0.02035332 -0.015789231 -0.03937683
0.013150626 -0.048760124 -0.007117764 0.016496496 -0.04830472 0.037388824 -0.016116537 0.049677048
00000000: 89f9 abbc dfd8 abbc 5562 6dbd 2412 803c
00000010: 911b babc f472 cdbc f6ae af3c 56f5 1abd
00000020: e92a 18bd e233 5e3d fc7b 4abd 50ec b93b
00000030: 9e23 3fbc 3c62 e2bc 68da 13bd 8106 80bc
00000040: f3a3 f2bb 9dab 5fbd 3245 643d 8532 71bc
00000050: 1796 803c 26af 343b e690 d4bc 6fd0 5f3d
00000060: 1b42 173c 7883 223d 0b1d 90bc 5f1f 10bd
00000070: 51b7 0c3d 29e6 01bd 8694 65bd 6289 66bd
00000080: a6ab 06bd 4c84 35bd 2d5c fd3c 8006 4e3d
00000090: 1d29 0e3d 2895 33bd 4230 8b3c 72b9 c93c
000000a0: 285b 07bd 10f5 cf3c fb1c ee3c cffc 4a3c
000000b0: 182e 23bd 255f cabc 4898 1a3d de14 3c3a
000000c0: a641 4fbd c998 033b 002e 293b e3ed 533d
000000d0: c805 03bd 0cab c53b 9b2b a23c 1b56 503a
000000e0: 87d5 0c3d 1e0b 713c cea3 6b3d 1c39 17bd
000000f0: 4569 a13b 405c 51bd 5d61 c9bc 9433 973c
00000100: 7c2b 69bd f331 a13c c745 693d 048e 973c
00000110: ff4e 963c 2191 ebbc cf02 243c c726 6cbd
00000120: 482d 4cbd 4464 373c bdef 5abd 835d 523c
00000130: a228 a4bc b908 4cbc 0dfc c73c f37f c8bc
00000140: 36a2 4c3d 6d40 1cbb c291 363d 05b9 da3c
00000150: b57a 4c3c 7512 453d 6d6d 0fbd d1ee c73c
00000160: 8aa3 e0bb cd85 22bd c1bd 893c f90a 153c
00000170: b01f 203c d029 053d 4fbe 7fbc 3cf5 203d
00000180: b9c5 06bc 5d0b f73b c10d 503c af75 ac3c
00000190: 3d17 12bd 70c1 3a3d 4943 13bd cc11 1fbc
000001a0: 34a7 e73a 94e6 ac3b 60e1 0d3d ff48 72bd
000001b0: d2f6 0ebb a26a 90bc 29a4 2fbd 8ef4 1fbd
000001c0: 832a 24bc 92b1 2ebd 5528 1a3d bd1a c2bb
000001d0: 4c88 03bd ea6c 05bd c680 ae3c 02c8 2f3d
000001e0: ad7e 16bc a193 ccbc b230 17bd d294 7c3a
000001f0: 6d01 0b3b 6c30 64bd 7771 20bd 321a fc3b
00000200: aaf7 d5bc d495 5ebd 1b5d b43c 12d9 313d
00000210: 8e9c 73bd 362a ff3c 51e3 aebc 127f 003d
00000220: 00a9 d5bc 2375 233d e976 183d 4449 413d
00000230: 3f0d 183d 2f22 963c 7fdd 60bd e267 653d
00000240: 96fe 36bd 37fd 173c a71a 14bc 7afe d83c
00000250: 9572 efbb dd29 80bc 1614 ba3c 861a 5bbd
00000260: cf29 413d e662 d7bc 1917 92bc d146 2fbd
00000270: 1380 35bb 64cc 7cbd e49f 053d c700 c13c
00000280: c628 043d a8a9 15bc 6b41 24bd 1cf4 263c
00000290: cfe8 47bd 4c81 21bd 8765 17bd 09f2 14bd
000002a0: f299 28bc 1aca 503d af0b 1dbc fab7 3f3d
000002b0: 07e8 eebc 62b9 503d c73a 323c 438d 90bc
000002c0: df4b 2dbd df04 1a3d d4f1 c8bc 13be 4abd
000002d0: bd1e 06bc 6e38 3e3c 35a8 e6bc 9a78 293d
000002e0: 9fc3 14bd 0b19 69bd 2399 2ebb 36f8 e3bc
000002f0: 9923 653d 1664 96bc bf10 65bc c5bc fd3c
00000300: 9e17 573d 4cf9 4e3c 5f6a 83bb 4304 6cbd
00000310: c2f8 2d3d e006 573c deb5 f93c 0ed4 12bd
00000320: 8e3f d33c 23e9 2bbd d9d0 f13c 6d73 5b3d
00000330: 5355 383d 4eda 6e3b 3d13 373d 0233 fa3c
00000340: d661 543d 4ddf 433d 289d 403d f013 e93c
00000350: 4a9c 25bd e65c 903c 1622 693d c1a4 56bd
00000360: edbc be3c cc6c 763b a993 b9bc 8d79 8f39
00000370: ab6f dd3c a7bb 093b d687 0cbd 9db4 a0bc
00000380: df32 e5bc aecb 533c c2b2 3abd 6c1e 68bb
00000390: 60b9 1c3d bb28 3fbd 3d58 b33c b359 003d
000003a0: e5c1 823d d5c4 47bd 485d c03b 0308 113d
000003b0: f77a 28bd b5c2 5bbd 669f c6ba be42 20bd
000003c0: bb5d 673c 344f 3cbd c29f 05bd 81c3 4cbd
000003d0: d930 83bd 01bc a63c 6b58 81bc 9949 21bd
000003e0: b975 573c b2b8 47bd 223c e9bb a923 873c
000003f0: 2cdb 45bd 0625 193d d406 84bc 297a 4b3d

conv2.bias f4 [64]
-0.050366346 0.05642426 0.015939314 -0.017923437 0.020793555 -0.0025297815 0.020474864 0.030768415
-0.021411978 0.008464985 0.017468203 0.0044345097 -0.041257855 0.027510254 -0.051431183 0.050224718
-0.043005094 0.054135617 -0.003685695 0.004086128 -0.001913061 -0.052856978 0.03760981 -0.057093177
-0.00016683534 0.010751527 0.028114272 0.04089721 -0.03691448 -0.043684904 0.034796562 -0.001953542
0.05389325 0.058928017 0.055558495 0.022475116 0.027247656 -0.046951275 -0.021361126 -0.041872926
0.0006434184 -0.0555328 0.0339609 0.005243126 0.058032077 -0.0030073032 0.019572768 0.026846018
-0.046513084 -0.022706704 -0.050679356 -0.03194867 0.035234634 -0.024979446 0.010468447 0.015443827
-0.039101545 -0.015687486 -0.0033055476 0.0064878077 -0.041618902 -0.0015348704 -0.042812333 0.031063834
00000000: f14c 4ebd 201d 673d 2a93 823c 2cd4 92bc
00000010: 3f57 aa3c b1ca 25bb e7ba a73c 0b0e fc3c
00000020: 2c68 afbc b8b0 0a3c 7a19 8f3c 5d4f 913b
00000030: fffd 28bd 2f5d e13c 81a9 52bd 6fb8 4d3d
00000040: 1c26 30bd 4fbd 5d3d b38b 71bb ede4 853b
00000050: adbf faba 8f80 58bd be0c 1a3d 89da 69bd
00000060: 85f0 2eb9 2c27 303c e74f e63c d583 273d
00000070: a333 17bd f1ee 32bd d786 0e3d ff06 00bb
00000080: 2bbf 5c3d 815e 713d 4e91 633d bc1d b83c
00000090: 7a36 df3c fb4f 40bd 87fd aebc f282 2bbd
000000a0: 14ab 283a 5c76 63bd 961a 0b3d 87ce ab3b
000000b0: 0bb3 6d3d 2d16 45bb 1257 a03c 2eec db3c
000000c0: 8184 3ebd 6903 babc 2895 4fbd 9cdc 02bd
000000d0: 3152 103d b2a1 ccbc d983 2b3c 1b08 7d3c
000000e0: f128 20bd 0b83 80bc e3a1 58bb ad97 d43b
000000f0: 9578 2abd b42d c9ba fc5b 2fbd 9579 fe3c

bn2.weight f4 [64]
1.0004112 0.9999751 1.0027453 1.0037462 0.9979706 0.9988498 0.99772483 1.0045825
1.00232 0.9993751 1.0027158 0.99706614 1.0037184 0.9988602 0.9998245 0.99957865
1.0013461 0.9985072 0.99785316 1.0034039 0.9930429 0.9979582 1.0037479 0.99691004
0.99269575 1.0022106 0.995326 0.9933529 1.0002578 0.99640554 0.9962043 0.99762607
1.0023776 0.9995089 1.0069711 1.0055429 1.0042324 1.0017437 0.99998873 0.9994762
0.9990285 1.0009686 0.99406666 1.0052269 0.9949256 1.0028569 0.9917763 1.000785
1.0057195 0.9968974 1.0019495 1.0024632 1.0058286 1.0035595 1.0085924 0.9954125
1.0052371 0.9991632 1.0016934 0.9997048 1.0029144 0.99880666 0.9972333 0.9960031
00000000: 790d 803f 5efe 7f3f f559 803f c17a 803f
00000010: 007b 7f3f 9fb4 7f3f e56a 7f3f 2996 803f
00000020: 064c 803f 0cd7 7f3f fe58 803f ba3f 7f3f
00000030: d879 803f 4db5 7f3f 80f4 7f3f 63e4 7f3f
00000040: 1c2c 803f 2b9e 7f3f 4e73 7f3f 8a6f 803f
00000050: 0f38 7e3f 307a 7f3f d07a 803f 7f35 7f3f
00000060: 4f21 7e3f 7048 803f afcd 7e3f 604c 7e3f
00000070: 7308 803f 6f14 7f3f 3f07 7f3f 6c64 7f3f
00000080: e94d 803f d1df 7f3f 6ee4 803f a1b5 803f
00000090: b08a 803f 2339 803f 43ff 7f3f acdd 7f3f
000000a0: 55c0 7f3f bd1f 803f 277b 7e3f 46ab 803f
000000b0: 72b3 7e3f 9d5d 803f 0de5 7d3f b919 803f
000000c0: 6bbb 803f ab34 7f3f e23f 803f b750 803f
000000d0: febe 803f a374 803f 8e19 813f 5bd3 7e3f
000000e0: 9cab 803f 29c9 7f3f 7d37 803f a7ec 7f3f
000000f0: 805f 803f cbb1 7f3f ae4a 7f3f 0ffa 7e3f

bn2.bias f4 [64]
-0.003453001 0.001227685 -0.00036217124 0.0009513945 -0.0015965919 -0.0039513456 -0.00033023563 -0.0012992173
0.0021180294 0.0061478745 -0.000735807 -0.009587523 2.4964314e-05 -0.0011369898 0.0073854364 0.0018675807
-0.0005170626 -0.0033731551 -0.0036029012 0.0030422546 -0.0061494117 0.005051943 -0.0021314884 -0.0015909756
-0.0010603863 0.0007315033 -0.0049279938 -0.0030414332 -0.0005264118 0.005304135 -0.003551888 0.0006356775
0.0013208817 -0.0005702705 0.0019587623 0.0030757207 0.0016323983 -0.002060176 -0.0039803917 -0.0050125644
0.003863825 -0.0008930015 -0.0066518416 0.00046799876 -0.0052361824 0.0055122506 -0.0019677344 0.008269401
0.008614772 -0.0014383066 -0.002436266 0.0074397237 0.0026580289 -0.002772349 0.0047362493 -0.0067366147
0.00445629 -0.00013067665 0.0015918978 0.0027755694 2.3090874e-05 0.00022096228 -0.004250371 -0.0056486316
00000000: be4b 62bb 46ea a03a cde1 bdb9 0167 793a
00000010: bc44 d1ba 4a7a 81bb 7a23 adb9 804a aaba
00000020: a3ce 0a3b 1c74 c93b 2ce3 40ba fc14 1dbc
00000030: 756a d137 0c07 95ba 8801 f23b 9cc9 f43a
00000040: 7c8b 07ba 2710 5dbb a71e 6cbb 9060 473b
00000050: 0181 c9bb c58a a53b 71b0 0bbb 4888 d0ba
00000060: a9fc 8aba 5bc2 3f3a 027b a1bb c852 47bb
00000070: e6fe 09ba 4fce ad3b cbc6 68bb 98a3 263a
00000080: 6f21 ad3a 357e 15ba 945e 003b 0892 493b
00000090: 33f6 d53a 0504 07bb f26d 82bb 7040 a4bb
000000a0: 3a38 7d3b 5118 6aba b1f7 d9bb bb5d f539
000000b0: 4894 abbb 1ca0 b43b 1bf5 00bb 627c 073c
000000c0: f924 0d3c 9085 bcba c3a9 1fbb edc8 f33b
000000d0: 5332 2e3b 4cb0 35bb 8a32 9b3b d2be dcbb
000000e0: 1206 923b 3f06 09b9 3aa7 d03a 54e6 353b
000000f0: 46b3 c137 1cb2 6739 b246 8bbb 2818 b9bb

bn2.running_mean f4 [64]
-0.52833045 0.16610481 -1.2016284 -0.064263895 -0.47438288 0.48573533 -0.30423233 0.63559926
-0.17192248 -0.08266151 -0.17349483 0.05805031 0.2693985 0.02864771 -0.041761424 -0.29356802
-0.19450812 0.46580112 0.12937067 0.040470473 -0.04521645 -0.17723104 -0.24006489 -0.5667949
0.47597846 -0.4755589 0.49877086 -0.050551627 0.83745646 -0.06136699 -0.36169982 -0.54195493
0.0050384784 -0.025576012 -0.2621757 -0.21865967 -0.2442674 -0.1251245 -0.55816925 0.044474665
-0.1704005 1.0803673 0.53516734 0.01983273 0.3883689 0.5014975 0.41526535 0.23617685
-0.18247515 0.17409337 -0.78732204 0.07856638 -0.19134925 -0.22994916 -0.27602282 -0.4250897
-0.28965774 0.6483728 0.21036907 -0.051613197 0.0682887 0.3198774 -0.3291149 0.019999085
00000000: aa40 07bf 6117 2a3e f6ce 99bf ca9c 83bd
00000010: 50e2 f2be 4db2 f83e 57c4 9bbe a2b6 223f
00000020: 720c 30be 704a a9bd a1a8 31be 29c6 6d3d
00000030: 9aee 893e 9aae ea3c 070e 2bbd 8c4e 96be
00000040: 232d 47be 7c7d ee3e bf79 043e 5ec4 253d
00000050: e234 39bd 0e7c 35be 92d3 75be 7819 11bf
00000060: 73b3 f33e 757c f3be e55e ff3e 390f 4fbd
00000070: 8c63 563f f45b 7bbd b830 b9be 8fbd 0abf
00000080: d219 a53b c984 d1bc e53b 86be 52e8 5fbe
00000090: 3c21 7abe a320 00be 2ee4 0ebf 112b 363d
000000a0: 787d 2ebe 7a49 8a3f ba00 093f 4078 a23c
000000b0: 4ad8 c63e 2462 003f a99d d43e 58d8 713e
000000c0: c4da 3abe 8845 323e f08d 49bf 69e7 a03d
000000d0: 0ff1 43be cb77 6bbe dd52 8dbe 5ba5 d9be
000000e0: 054e 94be c3fb 253f fd6a 573e 5c68 53bd
000000f0: f2da 8b3d f8c6 a33e c081 a8be 1fd5 a33c

bn2.running_var f4 [64]
0.2133275 0.17349128 0.3679344 0.08549912 0.28700608 0.11311128 0.118489884 0.24087225
0.076701075 0.09414245 0.17166544 0.10392983 0.049038235 0.13918945 0.07862955 0.2194447
0.10123732 0.131099 0.43523255 0.09970747 0.06340228 0.07355764 0.13513872 0.2808231
0.23333272 0.18763052 0.16355588 0.16450681 0.304123 0.15535758 0.33206913 0.27253252
0.06282386 0.0827899 0.10083624 0.08315028 0.09530244 0.15126686 0.20925306 0.27263668
0.081644766 0.2621615 0.16164945 0.14453144 0.1456397 0.2245607 0.13966845 0.15577492
0.15054658 0.107669555 0.24970317 0.08095783 0.07963466 0.1828919 0.08676787 0.15248749
0.10555551 0.17429459 0.13656399 0.086656734 0.08895824 0.64516455 0.23769118 0.12642552
00000000: 8672 5a3e b3a7 313e e661 bc3e 2a1a af3d
00000010: 76f2 923e e3a6 e73d d3aa f23d 37a7 763e
00000020: 7415 9d3d c2cd c03d 11c9 2f3e 2ad9 d43d
00000030: 51dc 483d ae87 0e3e 8808 a13d 1db6 603e
00000040: 8355 cf3d d13e 063e cdd6 de3e 6e33 cc3d
00000050: 0ed9 813d 63a5 963d ce61 0a3e 0cc8 8f3e
00000060: c6ee 6e3e 3722 403e 317b 273e 7974 283e
00000070: 03b6 9b3e 0f16 1f3e f704 aa3e 6289 8b3e
00000080: cca9 803d c08d a93d 3b83 ce3d b24a aa3d
00000090: ed2d c33d b3e5 1a3e 6f46 563e 0997 8b3e
000000a0: 5f35 a73d 083a 863e 6f87 253e 0d00 143e
000000b0: 9322 153e 3df3 653e 3f05 0f3e 7683 1f3e
000000c0: e228 1a3e db81 dc3d 30b2 7f3e 38cd a53d
000000d0: 7f17 a33d 0448 3b3e 5ab3 b13d ae25 1c3e
000000e0: 7d2d d83d 487a 323e 6ed7 0b3e 1679 b13d
000000f0: bd2f b63d 8129 253f 5165 733e b175 013e

conv3.weight f4 [128, 64, 3, 3]
-0.0050426577 0.020191252 0.030982349 0.01337237 -0.029843157 0.028412892 0.0033751137 0.011391098
0.0030780856 0.020952603 -0.012345434 0.011390788 0.03043821 -0.01851457 0.030535784 0.037027583
-0.0012629614 0.004260981 0.003207613 0.03683301 -0.022847582 0.044398453 -0.034354523 -0.03151251
0.025184646 -0.014572391 0.012480364 0.034678075 0.014174791 0.021318685 -0.04187716 -0.016851638
0.022909973 -0.019418634 -0.021046516 -0.044777915 0.015019584 0.0291394 -0.025334906 0.032217193
-0.033613 -0.030826174 -0.032819457 0.02068171 -0.02698131 -0.0042343065 0.025863485 -0.016864303
0.01484455 0.028147165 -0.029232739 -0.03131401 -0.0048439866 -0.020663954 -0.0033184336 0.017729277
-0.0044751205 0.031987786 -0.041124165 0.024848374 -0.040305894 -0.016403755 0.013665965 0.019917551
-0.004802523 -0.010331093 -0.037016023 -0.03604931 0.0093999775 0.004760366 0.033980526 -0.014859386
-0.012583878 -0.041826144 0.019496076 0.03792408 0.0094031375 0.036713846 -0.029237507 0.021848485
0.0061209467 0.027872737 -0.03882248 0.029825587 -0.041728824 0.024600727 -0.015875777 -0.038844615
0.015678354 -0.006369726 0.0067962073 -0.008466114 0.0023524084 -0.010776423 0.011794505 0.030123092
0.037817314 0.0068811695 0.034574438 0.030650083 -0.001843257 -0.0265693 -0.028774025 -0.01874455
0.02631086 -0.017381795 0.036394563 -0.02089716 0.040171 0.027423635 0.030247115 -0.029194228
-0.017709136 0.03718829 0.01864875 -0.00042247714 -0.033297993 0.032935765 -0.019268211 0.009638504
0.015793562 0.0004767668 -0.025913088 0.034941323 0.0020484223 0.019334061 -0.03333497 0.031158092
0.02776953 -0.03525833 -0.033429258 0.021914352 -0.039103877 -0.037188675 0.02189546 0.0033535564
0.014092556 0.022775497 0.027080614 -0.020266596 -0.026244644 -0.018180402 -0.029202612 0.027252749
0.04094827 0.044615075 0.0020806852 -0.018850619 -0.0039611747 -0.012054653 0.0074148444 0.00665725
-0.029552195 -0.013024802 -0.007426761 0.013081158 -0.028263543 0.028917538 0.025486888 0.00032755636
-0.039130993 -0.00863472 -0.005335472 0.01904082 0.011820544 -0.025593737 -0.04074672 0.025629612
0.0228854 0.03412942 -0.021074785 -0.001472116 0.031853534 -0.014609293 -0.0019307764 -0.028537745
-0.008672063 0.007068399 -0.039924566 -0.018917965 0.013232783 -0.01938234 -0.0397878 -0.031005634
-0.044604395 -0.011516911 0.037362486 0.014937778 -0.0118067395 0.008665275 0.0026095682 0.013847161
-0.0016598464 0.028858883 -0.04273013 0.011879665 -0.019621488 -0.012455169 0.015440847 0.026666583
-0.020154396 0.020767294 0.024980677 0.036108017 0.04068251 0.03927509 0.007524652 0.0072023384
0.026490439 -0.018482108 0.030464686 -0.016637573 -0.0012796441 0.0087571135 -0.026397968 0.0094087105
-0.0038195287 -0.012479857 0.013176585 0.029762518 -0.0024406097 -6.0841714e-05 -0.029353391 0.032104455
-0.0020065508 -0.041437276 -0.026930474 0.006533985 0.015354843 0.0073573226 0.00968819 0.029999785
-0.0088204 0.008151848 0.023810731 0.024075456 0.0226983 -0.04370828 0.0029673132 0.018161079
-0.04618107 0.028075844 -0.034189254 0.027594235 -0.011227084 -0.030564683 -0.034680713 0.029288016
-0.027344782 0.003898327 -0.0028060102 0.03082723 0.03153857 0.00064620463 0.024825253 -0.0027709443
00000000: e13c a5bb 2068 a53c b2ce fd3c c917 5b3c
00000010: a379 f4bc 27c2 e83c 0331 5d3b baa1 3a3c
00000020: b5b9 493b cba4 ab3c 8144 4abc 6da0 3a3c
00000030: 8e59 f93c deab 97bc 2e26 fa3c 3caa 173d
00000040: f489 a5ba b39f 8b3b d136 523b 36de 163d
00000050: da2a bbbc 27db 353d 54b7 0cbd 4313 01bd
00000060: 0850 ce3c 0ac1 6ebc 717a 4c3c 990a 0e3d
00000070: 623d 683c 86a4 ae3c 6387 2bbd 720c 8abc
00000080: b2ad bb3c d413 9fbc be69 acbc 0c69 37bd
00000090: b414 763c c0b5 ee3c 268b cfbc 2df6 033d
000000a0: c9ad 09bd 2c87 fcbc b26d 06bd b16c a93c
000000b0: e907 ddbc f0bf 8abb a9df d33c 0227 8abc
000000c0: 8e36 733c e294 e63c 7f79 efbc 1f43 00bd
000000d0: 4eba 9ebb 7447 a9bc 147a 59bb fd3c 913c
000000e0: 08a4 92bb a005 033d d071 28bd d18e cb3c
000000f0: cb17 25bd 2b61 86bc 36e7 5f3c 222a a33c
00000100: 7c5e 9dbb bf43 29bc 1d9e 17bd 71a8 13bd
00000110: 5d02 1a3c d8fc 9b3b 2a2f 0b3d c874 73bc
00000120: 9c2c 4ebc e451 2bbd 3cb6 9f3c 4856 1b3d
00000130: 9e0f 1a3c 4261 163d 7f83 efbc 98fb b23c
00000140: 3992 c83b 5e55 e43c 5204 1fbd ca54 f43c
00000150: d8eb 2abd 7787 c93c eb0d 82bc 881b 1fbd
00000160: e46f 803c 22b9 d0bb b8b2 de3b 75b5 0abc
00000170: dd2a 1a3b 988f 30bc bd3d 413c b4c4 f63c
00000180: 54e6 1a3d 6f7b e13b ed9d 0d3d e215 fb3c
00000190: 7199 f1ba dca7 d9bc 81b7 ebbc 2c8e 99bc
000001a0: df89 d73c 4464 8ebc 7712 153d 8530 abbc
000001b0: 598a 243d 88a7 e03c ccc8 f73c bc28 efbc
000001c0: c012 91bc c052 183d 43c5 983c ec7f ddb9
000001d0: 7a63 08bd a7e7 063d 5ed8 9dbc d1ea 1d3c
000001e0: 8061 813c 8ff6 f939 af47 d4bc a21e 0f3d
000001f0: d33e 063b 7762 9e3c 408a 08bd 413f ff3c
00000200: ed7c e33c 0a6b 10bd 1eed 08bd ba85 b33c
00000210: 632b 20bd 2753 18bd 1c5e b33c 57c7 5b3b
00000220: 77e4 663c ae93 ba3c 2ad8 dd3c 2206 a6bc
00000230: 02ff d6bc 11ef 94bc 513a efbc 2841 df3c
00000240: 60b9 273d 4cbe 363d 1b5c 083b 9d6c 9abc
00000250: becc 81bb e180 45bc 39f8 f23b 1025 da3b
00000260: 7217 f2bc fb65 55bc 305c f3bb 5a52 563c
00000270: f288 e7bc 79e4 ec3c e1c9 d03c dfbb ab39
00000280: d247 20bd a478 0dbc 2fd5 aebb 7efb 9b3c
00000290: f4aa 413c f5a9 d1bc 08e6 26bd 31f5 d13c
000002a0: 2a7a bb3c 4acb 0b3d 07a5 acbc 04f4 c0ba
000002b0: da78 023d d15b 6fbc 1b12 fdba fdc7 e9bc
000002c0: 4515 0ebc 079e e73b f187 23bd d9f9 9abc
000002d0: 51ce 583c b7c7 9ebc 88f8 22bd 87ff fdbc
000002e0: 19b3 36bd 6db1 3cbc 6809 193d 95bd 743c
000002f0: 0e71 41bc ccf8 0d3c 4a05 2b3b 34df 623c
00000300: 348f d9ba 7769 ec3c ca05 2fbd eda2 423c
00000310: 3ebd a0bc c410 4cbc 9bfb 7c3c e173 da3c
00000320: d51a a5bc 2c20 aa3c 47a4 cc3c 00e6 133d
00000330: b4a2 263d ebde 203d 5b91 f63b 9801 ec3b
00000340: 7a02 d93c ca67 97bc 1491 f93c 854b 88bc
00000350: bbb9 a7ba ff79 0f3c 8d40 d8bc fe26 1a3c
00000360: 0f51 7abb 5078 4cbc 9ae2 573c 86d0 f33c
00000370: a3f2 1fbb 4b30 7fb8 8676 f0bc f67f 033d
00000380: 5680 03bb 22ba 29bd 4c9d dcbc 0a1b d63b
00000390: e192 7b3c b215 f13b 37bb 1e3c 1cc2 f53c
000003a0: 7083 10bc 548f 053c b90e c33c e439 c53c
000003b0: c9f1 b93c 7407 33bd 4177 423b 8bc6 943c
000003c0: 5d28 3dbd 50ff e53c 080a 0cbd 4e0d e23c
000003d0: cef1 37bc c962 fabc 5d0d 0ebd 6ced ef3c
000003e0: 2a02 e0bc 137b 7f3b 0ae5 37bb 6389 fc3c
000003f0: 962e 013d 0f66 293a 545e cb3c bb98 35bb

conv3.bias f4 [128]
-0.037620768 0.0020820498 0.034094803 -0.00990405 0.0411642 0.0017816892 -0.035074156 0.042441156
-0.032782186 0.028796326 -0.040197097 0.026785724 0.029292693 0.032824595 -0.022176452 0.021168958
0.03644413 0.006372046 0.020150699 -0.017451903 -0.031891607 0.01721111 -0.029661639 0.0010235028
-0.034749463 -0.0040867277 -0.034623638 -0.03078003 -0.020402329 -0.016842531 0.0049558775 0.011117745
-0.036030035 0.012889035 -0.026315825 -0.021207687 0.0053907065 -0.006572565 0.012243144 0.011659265
0.031168822 0.019567031 -0.032783214 0.0341349 0.028867291 0.009220989 0.030216986 0.00086005905
-0.0035030069 0.0014430083 -0.03811787 -0.0011085394 0.011471759 -0.018942315 -0.023812208 -0.03358642
-0.0036573259 0.008197409 0.008654742 0.017961137 0.022633435 -0.040078875 -0.030483747 -0.031175483
0.03257682 0.02158415 -0.004091103 8.349393e-05 0.040182475 0.0055036014 -0.022403464 0.014256857
0.011771038 0.0011901677 0.028554391 0.012975169 -0.015979873 -0.026918981 -0.030800307 -0.031920563
0.028340602 0.021854358 -0.036925957 0.03772518 -0.010754235 -0.0214733 0.01616899 -0.023879908
-0.0066438047 -0.012175616 -0.03505312 -0.015443924 0.011730087 0.0353452 -0.01190588 0.038058463
-0.012886096 0.014529036 -0.025698341 -0.0076169 0.037422538 0.031803347 0.032424066 -0.0069740824
0.025326783 -0.03812255 0.010073646 0.015826805 -0.038937088 -0.020207176 0.02743596 0.017132653
-0.030988598 -0.009802977 0.034553938 -0.0047082496 0.0060980543 0.026201213 -0.020937832 -0.015713109
0.035429902 0.01149563 0.03732681 0.011544595 0.037206545 0.03769669 0.01900806 -0.019605817
00000000: 3c18 1abd 0073 083b fea6 0b3d 9944 22bc
00000010: cb9b 283d 9287 e93a eba9 0fbd c7d6 2d3d
00000020: 9d46 06bd 46e6 eb3c b6a5 24bd bc6d db3c
00000030: 3bf7 ef3c 1573 063d 64ab b5bc 866a ad3c
00000040: 7146 153d 99cc d03b 1413 a53c 4bf7 8ebc
00000050: c6a0 02bd 50fe 8c3c f7fc f2bc 0e27 863a
00000060: 7455 0ebd f5e9 85bb 84d1 0dbd 6726 fcbc
00000070: c922 a7bc 59f9 89bc ea64 a23b 3427 363c
00000080: 3b94 13bd 882c 533c 4994 d7bc bebb adbc
00000090: 86a4 b03b ac5e d7bb 7897 483c 8006 3f3c
000000a0: c255 ff3c 0a4b a03c b147 06bd 09d1 0b3d
000000b0: 197b ec3c a213 173c 9d89 f73c 9675 613a
000000c0: b492 65bb 5323 bd3a 7c21 1cbd 694c 91ba
000000d0: 0bf4 3b3c ea2c 9bbc d211 c3bc ea91 09bd
000000e0: bfaf 6fbb 6d4e 063c 9ecc 0d3c 3c23 933c
000000f0: c169 b93c bf29 24bd 0db9 f9bc ba63 ffbc
00000100: 466f 053d 3ed1 b03c a90e 86bb 7619 af38
00000110: 6196 243d 8e57 b43b 7887 b7bc 9895 693c
00000120: 50db 403c 67ff 9b3a e6ea e93c ce95 543c
00000130: 39e8 82bc 3285 dcbc ed50 fcbc 23bf 02bd
00000140: 8d2a e83c e907 b33c ac3f 17bd b885 1a3d
00000150: 8832 30bc c6e8 afbc d474 843c cc9f c3bc
00000160: 46b4 d9bb 3c7c 47bc dc93 0fbd 8308 7dbc
00000170: 8d2f 403c 21c6 103d e110 43bc 31e3 1b3d
00000180: 3420 53bc 320b 6e3c 5485 d2bc 3097 f9bb
00000190: 6048 193d 3a44 023d 19cf 043d d886 e4bb
000001a0: 1d7a cf3c 6426 1cbd ef0b 253c 37a7 813c
000001b0: 7f7c 1fbd 8589 a5bc 61c1 e03c c759 8c3c
000001c0: cddb fdbc aa9c 20bc 6e88 0d3d a947 9abb
000001d0: 30d2 c73b eda3 d63c d185 abbc c7b8 80bc
000001e0: f21e 113d 2b58 3c3c ffe3 183d 8a25 3d3c
000001f0: e465 183d d867 1a3d cbb6 9b3c 619c a0bc

bn3.weight f4 [128]
1.0059642 0.99893147 1.0066876 1.0093675 1.0045149 1.0048525 1.0064969 1.0069667
1.0042188 1.0003766 1.00683 1.0010666 0.99817276 1.0083264 0.9988247 1.0013964
1.009273 0.99946845 0.99971926 1.0081118 1.0026041 1.0070469 0.99864775 1.0037787
1.006111 1.0074288 1.00348 1.0031618 1.0064647 1.0037568 1.0103103 1.0001107
1.0040965 1.0000403 1.0060456 1.004933 1.0016565 1.0032986 1.0048064 1.0078596
1.0055395 1.0090611 0.99982846 1.0038958 1.0031056 1.002791 1.0049586 1.005412
1.0031242 1.0024256 1.0083195 1.0075431 1.0080515 0.99990785 1.0063995 1.005356
1.0032748 1.006328 1.0008069 1.0044119 1.0017145 1.0023217 1.007422 1.0054818
1.0032037 1.0051464 1.0080998 1.009533 1.0064425 1.006709 1.0048146 1.0053347
1.0028483 1.004801 1.007628 0.9972119 1.0037082 1.003518 1.0069518 1.006407
1.0019746 1.0011038 1.0085925 1.0076072 1.005218 0.99736935 1.0054976 0.9990575
1.0027735 1.0018715 1.0090991 0.99911684 1.0027078 1.0021254 1.0040684 0.9956692
1.0047685 1.0050776 1.004873 1.0038735 1.0043343 1.0022836 0.9951029 1.005826
1.0071923 1.006226 1.0057795 1.0046275 1.0028899 1.0077784 1.0018301 1.0064765
0.99764824 1.0093222 1.0076746 1.0061625 0.99961853 1.0060887 0.99843013 1.0044805
1.0050188 1.0095949 1.0017754 1.0036373 1.0024909 1.0056107 1.0036378 1.0062165
00000000: 6fc3 803f f9b9 7f3f 24db 803f f432 813f
00000010: f293 803f 029f 803f e4d4 803f 49e4 803f
00000020: 3e8a 803f 570c 803f cedf 803f f322 803f
00000030: 4088 7f3f d710 813f fab2 7f3f c22d 803f
00000040: dc2f 813f 2add 7f3f 9aed 7f3f cf09 813f
00000050: 5555 803f eae6 803f 61a7 7f3f d27b 803f
00000060: 3fc8 803f 6df3 803f 0872 803f 9b67 803f
00000070: d6d3 803f 1a7b 803f d951 813f a103 803f
00000080: 3c86 803f 5201 803f 1ac6 803f a5a1 803f
00000090: 4836 803f 176c 803f 7f9d 803f 8b01 813f
000000a0: 85b5 803f ea28 813f c2f4 7f3f a87f 803f
000000b0: c465 803f 755b 803f 7ca2 803f 57b1 803f
000000c0: 6066 803f 7b4f 803f 9d10 813f 2cf7 803f
000000d0: d507 813f f6f9 7f3f b3d1 803f 81af 803f
000000e0: 4f6b 803f 5bcf 803f 711a 803f 9290 803f
000000f0: 2e38 803f 144c 803f 34f3 803f a1b3 803f
00000100: fb68 803f a3a8 803f 6a09 813f 6138 813f
00000110: 1cd3 803f d7db 803f c49d 803f cfae 803f
00000120: 555d 803f 529d 803f f4f9 803f 4749 7f3f
00000130: 8379 803f 4773 803f cce3 803f f2d1 803f
00000140: b440 803f 2b24 803f 8f19 813f 46f9 803f
00000150: fcaa 803f 9953 7f3f 25b4 803f 3bc2 7f3f
00000160: e25a 803f 533d 803f 292a 813f 1fc6 7f3f
00000170: bb58 803f a545 803f 5085 803f 2de4 7e3f
00000180: 419c 803f 62a6 803f ae9f 803f ed7e 803f
00000190: 078e 803f d44a 803f 10bf 7e3f e8be 803f
000001a0: adeb 803f 03cc 803f 62bd 803f a297 803f
000001b0: b25e 803f e2fe 803f f83b 803f 39d4 803f
000001c0: e065 7f3f 7831 813f 7bfb 803f efc9 803f
000001d0: 00e7 7f3f 84c7 803f 1e99 7f3f d192 803f
000001e0: 75a4 803f 683a 813f 2d3a 803f 3077 803f
000001f0: 9f51 803f dab7 803f 3477 803f b4cb 803f

bn3.bias f4 [128]
0.0043646353 -0.0017612466 0.0061375774 0.006710791 0.0007831114 0.0030144793 0.0033186134 0.005522705
0.0035657487 -0.0009222326 0.003546257 -0.00065414904 -0.0023949533 0.0059391824 -0.0035144358 -0.00014625039
0.007057395 -0.0018032124 1.5875688e-05 0.004187904 -0.00017661585 0.005195306 -0.0013943057 0.002918492
0.004808047 0.005370704 0.0028606928 0.0012586291 0.004693695 0.00083062757 0.006794756 -0.0016834004
0.00069650146 -0.0016056598 0.0043696333 0.0028565782 0.001077965 0.0024321282 0.0019343868 0.0039785774
0.0037304712 0.007944278 -0.0018343288 0.00086541433 -0.0002044756 0.0012452757 0.00202444 0.0034699428
0.0016520065 0.0027719645 0.005073238 0.0062807235 0.0051898644 -0.001036083 0.004854437 0.0021267564
0.0019778789 0.005900954 0.0004056828 0.0024711797 -0.00021790959 -0.0010375587 0.004173423 0.004438494
0.0014608117 0.0026839187 0.0060954043 0.0060658543 0.004495663 0.0046312097 0.0025192208 0.003532815
0.0017564385 0.0035676437 0.004408761 -0.0033000114 0.0033712247 0.00026329272 0.0063667907 0.0027297284
0.0023042047 0.0010390782 0.005389644 0.0069478285 0.003867752 -0.0041909968 0.00038455817 -0.0015408242
0.00180106 0.0005170304 0.0069395103 -0.0020900713 -0.00041537645 0.00022909863 0.0026356312 -0.00459569
0.0019384999 0.0033937083 0.003439828 0.003943611 0.0009832006 0.0012433861 -0.005110172 0.0035298625
0.006903043 0.0047442396 0.002602715 0.003219811 0.0002669463 0.006087711 0.0017626141 0.0055278298
-0.0034153743 0.007050642 0.0037958778 0.004556726 -0.00068093586 0.004038237 -0.004260882 -0.00035595673
0.0028673962 0.006564935 -0.0011817992 0.00081026176 0.0013538571 0.0023312005 0.0018320265 0.0038916243
00000000: 3705 8f3b a1d9 e6ba bb1d c93b 32e6 db3b
00000010: b749 4d3a 928e 453b 187d 593b cff7 b43b
00000020: 56af 693b fbc1 71ba 5268 683b 337b 2bba
00000030: a6f4 1cbb 799d c23b 7352 66bb ca5a 19b9
00000040: b841 e73b c559 ecba c82c 8537 af3a 893b
00000050: f531 39b9 633d aa3b 23c1 b6ba 2c44 3f3b
00000060: d28c 9d3b bbfc af3b 767a 3b3b 96f8 a43a
00000070: 91cd 993b 79be 593a 8ba6 de3b 8ba5 dcba
00000080: 6c95 363a 0175 d2ba 242f 8f3b 6e35 3b3b
00000090: 814a 8d3a 5764 1f3b 408b fd3a ba5e 823b
000000a0: ec7a 743b b828 023c dc6d f0ba f9dc 623a
000000b0: 8068 56b9 8538 a33a 78ac 043b fb67 633b
000000c0: 2488 d83a d9a9 353b 683d a63b 87ce cd3b
000000d0: bd0f aa3b 2dcd 87ba f811 9f3b 0d61 0b3b
000000e0: 4d9f 013b ca5c c13b d3b1 d439 84f3 213b
000000f0: a97e 64b9 b1fe 87ba 36c1 883b c970 913b
00000100: b578 bf3a afe4 2f3b f5bb c73b 13c4 c63b
00000110: 5b50 933b 67c1 973b 8319 253b cd86 673b
00000120: 4c38 e63a 21cf 693b 5e77 903b 0145 58bb
00000130: c4ef 5c3b 8d0a 8a39 83a0 d03b 3ee5 323b
00000140: 2402 173b ae31 883a 9c9b b03b 9caa e33b
00000150: 1c7a 7d3b a154 89bb 869e c939 7bf5 c9ba
00000160: 8c11 ec3a 5389 073a d564 e33b 94f9 08bb
00000170: e2c6 d9b9 323a 7039 8eba 2c3b 7197 96bb
00000180: 4315 fe3a fa68 5e3b bd6e 613b 6839 813b
00000190: bdde 803a 1df9 a23a 3b73 a7bb 4455 673b
000001a0: ec32 e23b 9175 9b3b 5092 2a3b 7703 533b
000001b0: edf4 8b39 6c7b c73b 8407 e73a cc22 b53b
000001c0: 79d4 5fbb 1209 e73b 43c4 783b 9750 953b
000001d0: d580 32ba 3053 843b de9e 8bbb b49f bab9
000001e0: edea 3b3b ab1e d73b 9ae6 9aba bf67 543a
000001f0: e873 b13a 0ec7 183b 9c20 f03a 9f0a 7f3b

bn3.running_mean f4 [128]
-0.24473915 -0.016446833 -0.7269284 -0.027399028 0.63763094 -0.17539856 -0.4448592 -0.1375505
-0.35459352 -0.27276435 -0.45532364 -0.4873762 -0.15805672 -0.23143001 0.11303027 0.27376935
-0.15818961 -0.19093758 0.17919613 0.1740025 0.10746448 0.7120155 0.37059414 0.55602276
-0.6377552 -0.6350422 0.29425663 0.4328183 0.14100245 -0.423081 0.7164082 -0.4064781
0.05822718 -0.16466828 0.1895611 -0.3117771 -0.3534093 0.6901578 -0.60294574 -1.406633
0.087128855 -0.019125154 0.884614 -1.2309908 0.33583987 0.21006423 -0.20666201 -0.574785
0.18802515 -0.2050891 -0.37360623 0.52429694 -0.15105784 0.4119778 -0.21188919 0.283821
-0.54085284 0.6297967 -0.8167345 0.40590623 0.1680258 0.5808587 -0.12272045 0.10415463
0.91982335 -0.28060475 0.10524733 -0.10534729 -0.60904694 -0.15650986 -0.091904946 -0.88223296
-0.12048311 -0.087673336 0.68614745 0.72719467 0.4034945 -0.44315556 -0.31018442 -0.4053731
-0.4197066 -0.064709485 -0.4160747 0.41052645 0.53471744 0.31679422 0.65534043 -0.23642609
0.8226167 0.38808033 -0.2284622 1.0160387 0.65818006 -0.22387674 0.22623831 -0.38578144
-0.30797213 0.37613654 -0.4183758 0.047908667 0.71421427 0.40941852 0.8360303 0.5015287
0.2220502 -0.34904438 -0.0116298245 -0.0028583365 -0.3083377 -0.29599524 -0.9981966 0.5364422
0.8066571 -0.11965372 -0.23127313 0.7079956 0.39945954 0.18188019 -0.32547364 -0.8882907
-0.36471167 0.3688609 0.18992239 0.24050134 -0.18228112 -0.27319908 0.27303386 -0.18118744
00000000: e69c 7abe 82bb 86bc fb17 3abf ed73 e0bc
00000010: c83b 233f ae9b 33be 96c4 e3be 0ada 0cbe
00000020: 488d b5be c5a7 8bbe 2e20 e9be 6089 f9be
00000030: 9fd9 21be fdfb 6cbe 6a7c e73d 7f2b 8c3e
00000040: 75fc 21be 2485 43be 317f 373e b62d 323e
00000050: 5616 dc3d a646 363f 84be bd3e 8257 0e3f
00000060: ed43 23bf 2092 22bf cea8 963e 5c9a dd3e
00000070: f262 103e 139e d8be 8766 373f e61d d0be
00000080: a07f 6e3d cd9e 28be 4e1c 423e 40a1 9fbe
00000090: 10f2 b4be 2eae 303f a75a 1abf 8d0c b4bf
000000a0: 9d70 b23d 5bac 9cbc 1076 623f 1b91 9dbf
000000b0: 34f3 ab3e 141b 573e 359f 53be 1c25 13bf
000000c0: aa89 403e e102 52be 5149 bfbe 5338 063f
000000d0: e8ae 1abe c1ee d23e 7bf9 58be fc50 913e
000000e0: 5575 0abf 5b3a 213f 8315 51bf f1d2 cf3e
000000f0: f50e 2c3e 28b3 143f dc54 fbbd 064f d53d
00000100: 8b79 6b3f 6dab 8fbe ea8b d73d 52c0 d7bd
00000110: 80ea 1bbf 1f44 20be a938 bcbd 05da 61bf
00000120: d9bf f6bd 148e b3bd 5ca7 2f3f 6e29 3a3f
00000130: d596 ce3e 49e5 e2be 7ed0 9ebe 108d cfbe
00000140: c9e3 d6be 6886 84bd be07 d5be 8630 d23e
00000150: 3ee3 083f da32 a23e 64c4 273f ae19 72be
00000160: 0297 523f 77b2 c63e fff1 69be 8e0d 823f
00000170: 7d7e 283f f23f 65be 04ab 673e 2585 c5be
00000180: 86ae 9dbe f894 c03e 5a35 d6be e13b 443d
00000190: bfd6 363f 4e9f d13e 1506 563f 2f64 003f
000001a0: 2161 633e f2b5 b2be 058b 3ebc ee52 3bbb
000001b0: 70de 9dbe b08c 97be d089 7fbf 4754 093f
000001c0: 1481 4e3f 020d f5bd ddd2 6cbe 333f 353f
000001d0: f685 cc3e cd3e 3a3e 7ba4 a6be 0567 63bf
000001e0: 7dbb babe 56db bc3e 047b 423e fc45 763e
000001f0: e7a7 3abe c0e0 8bbe 18cb 8b3e 3389 39be

bn3.running_var f4 [128]
0.19048257 0.30337462 0.10733842 0.28829014 0.3147642 0.24253415 0.35086447 0.13134168
0.1376798 0.27544886 0.3700403 0.3889073 0.30338988 0.22501172 0.2895896 0.1811688
0.28402638 0.23219848 0.18646055 0.15930341 0.4534888 0.14801978 0.30295318 0.15425166
0.14988482 0.13679281 0.118692644 0.29233524 0.12704101 0.20623933 0.1433765 0.27577588
0.31944436 0.2263261 0.25423938 0.15507218 0.1578167 0.186611 0.22068231 0.34679392
0.22355859 0.12264746 0.23480417 0.31447205 0.4104273 0.163681 0.26134595 0.2095486
0.1677592 0.19016914 0.29569006 0.1148168 0.21417315 0.3152784 0.20132875 0.23052058
0.17489082 0.1530779 0.29262984 0.38740775 0.18030027 0.45175943 0.26212078 0.16491978
0.15806714 0.15169431 0.11190412 0.1823133 0.2774982 0.117471516 0.15652825 0.21311703
0.17777404 0.1537013 0.14402482 0.36034712 0.13142824 0.24579348 0.20056394 0.29366052
0.19919813 0.17915493 0.20476294 0.1288878 0.12852792 0.64823896 0.27736798 0.2902463
0.15098754 0.19910672 0.22568113 0.23214328 0.32456723 0.2277531 0.10370724 0.23885791
0.254697 0.188549 0.37427518 0.13428588 0.10412934 0.15865201 0.27802765 0.11598141
0.16396421 0.14680849 0.23092878 0.18918592 0.22551972 0.29250842 0.38290286 0.12140251
0.35863385 0.28035265 0.24913807 0.20264594 0.22873366 0.20315267 0.3295615 0.39459723
0.31410003 0.16916186 0.3420982 0.21596755 0.16994078 0.16854358 0.18569516 0.14726834
00000000: dd0d 433e eb53 9b3e 3fd4 db3d c49a 933e
00000010: c628 a13e df5a 783e 82a4 b33e 6f7e 063e
00000020: effb 0c3e a207 8d3e ec75 bd3e dc1e c73e
00000030: eb55 9b3e 7969 663e 1745 943e 5084 393e
00000040: e86b 913e 70c5 6d3e 84ef 3e3e 6f20 233e
00000050: af2f e83e 7f92 173e ae1c 9b3e 26f4 1d3e
00000060: 687b 193e 6a13 0c3e 2115 f33d f7ac 953e
00000070: 0a17 023e 6730 533e 4ad1 123e 7f32 8d3e
00000080: 368e a33e 07c2 673e aa2b 823e 3ecb 1e3e
00000090: b39a 213e f416 3f3e 8bfa 613e f98e b13e
000000a0: 8bec 643e 972e fb3d 8170 703e 7b02 a13e
000000b0: 8723 d23e fe9b 273e 23cf 853e e893 563e
000000c0: 11c9 2b3e b3bb 423e b064 973e 1225 eb3d
000000d0: 3550 5b3e 2c6c a13e 2029 4e3e 960d 6c3e
000000e0: 9416 333e 74c0 1c3e 94d3 953e 4f5a c63e
000000f0: a2a0 383e 034d e73e b234 863e bbe0 283e
00000100: 5adc 213e c155 1b3e fd2d e53d 56b0 3a3e
00000110: 3e14 8e3e e894 f03d f148 203e 5a3b 5a3e
00000120: 660a 363e e063 1d3e 3e7b 133e 6b7f b83e
00000130: 2095 063e 49b1 7b3e a260 4d3e ac5a 963e
00000140: 98fa 4b3e 6474 373e 60ad 513e 2afb 033e
00000150: d39c 033e fdf2 253f 2d03 8e3e 2a9b 943e
00000160: 7a9c 1a3e a2e2 4b3e f418 673e f8b6 6d3e
00000170: ad2d a63e 1c38 693e 7664 d43d 2b97 743e
00000180: a567 823e fd12 413e ffa0 bf3e 3d82 093e
00000190: c341 d53d ac75 223e a459 8e3e a987 ed3d
000001a0: 3ce6 273e f754 163e 9878 6c3e f4b9 413e
000001b0: a4ee 663e aac3 953e d80b c43e e1a1 f83d
000001c0: db9e b73e 628a 8f3e 0d1e 7f3e 6b82 4f3e
000001d0: 2839 6a3e 4107 503e 49bc a83e a608 ca3e
000001e0: b8d1 a03e c438 2d3e 7f27 af3e 9926 5d3e
000001f0: f504 2e3e b096 2c3e df26 3e3e 83cd 163e
