rq1_cnn_best.pth (torch, 518771 bytes, 22 tensors)

conv1.weight f4 [32, 1, 3, 3]
0	0x3da04f24	0.07827595
1	0xbe84ef2a	-0.25963718
2	0x3e023b51	0.1271794
3	0x3e746d20	0.23869753
4	0xbcd91a38	-0.02650176
5	0xbd235aea	-0.039881624
6	0xbe6ca265	-0.23108824
7	0x3e862755	0.26201883
8	0x3cb47db1	0.02203259
9	0xbe1273a3	-0.14301924
10	0xbe5d72d6	-0.21625838
11	0x3df14435	0.117805876
12	0xbdc8cb10	-0.09804356
13	0x3d350b5c	0.044200286
14	0x3d193cf4	0.037411645
15	0x3ce3e871	0.027820798
16	0x3ddaa100	0.106752396
17	0x3d8399e2	0.06425835
18	0xbe9dabd1	-0.30795148
19	0x3df60741	0.12013102
20	0xbe937ace	-0.2880463
21	0xbe2f054f	-0.17091869
22	0xbd2dd5f7	-0.04244038
23	0x3e38a015	0.18029816
24	0x3e27a7c0	0.16372585
25	0x3e53eed5	0.20696576
26	0xbe044e77	-0.12920557
27	0x3e153aaa	0.1457316
28	0xbe0921e0	-0.13391829
29	0x3e233944	0.15939814
30	0xbe1d741d	-0.15376325
31	0x3dfec290	0.124394536
32	0xbe410587	-0.18849765
33	0xbde145b8	-0.10999626
34	0x3e6837f6	0.22677597
35	0x3e78085b	0.24221937
36	0xbe0b151c	-0.13582271
37	0x3e95c398	0.2925079
38	0x3e4c4e5e	0.1995177
39	0xbe184cdb	-0.14873068
40	0x3e96803a	0.29394704
41	0x3e0ce9ff	0.13761137
42	0xbdcf253f	-0.10114526
43	0x3e1ffdb3	0.15624122
44	0xbe697b08	-0.22800839
45	0xbca6b44f	-0.02034965
46	0xbe88fb80	-0.2675438
47	0xbd52e74b	-0.05149011
48	0x3e5e04d2	0.21681526
49	0x3e86ddef	0.26341197
50	0x3e9cb4b3	0.30606613
51	0x3e7b6e21	0.2455373
52	0x3d825339	0.0636353
53	0x3e07bead	0.13256331
54	0x3de130fb	0.109956704
55	0x3eaaed87	0.33384344
56	0x3e2c927e	0.16852757
57	0x3dc6a95d	0.09700272
58	0x3e970d62	0.29502398
59	0xbd41aede	-0.047285907
60	0x3db3fd60	0.08788562
61	0x3db62112	0.088930264
62	0x3e14b1f6	0.14521012
63	0xbdca2fde	-0.09872411
64	0xbe5e855a	-0.21730557
65	0x3c8b630d	0.017015005
66	0xbde0549f	-0.1095364
67	0x3d40f424	0.04710783
68	0xbdd92494	-0.1060268
69	0xbd9ef2a9	-0.077611275
70	0xbeaef841	-0.34173778
71	0x3e60c10c	0.21948642
72	0x3e9cd85a	0.30633813
73	0xbe0eaa02	-0.1393204
74	0xbba3103f	-0.004976302
75	0xbd9a2414	-0.075264126
76	0x3e232513	0.15932111
77	0x3e30a394	0.172499
78	0xbe61ec9d	-0.22062917
79	0x3dc6c3f2	0.09705342
80	0xbe20d247	-0.15705214
81	0xbd053baf	-0.03252762
82	0xbdf7191f	-0.12065338
83	0x3e9fab9e	0.3118562
84	0xbe328949	-0.17435183
85	0xbe8700cd	-0.26367798
86	0xbd521301	-0.051287655
87	0x3e0c5606	0.1370469
88	0xbe806a31	-0.25081018
89	0xbe84244c	-0.25808942
90	0xbccc9008	-0.024971023
91	0x3e8ce172	0.2751575
92	0x3eabac19	0.33529738
93	0xbe8d25d5	-0.27567926
94	0x3e82b9dc	0.25532424
95	0xbe674bf5	-0.22587569
96	0x3da4bba0	0.08043599
97	0x3d09826b	0.033571642
98	0xbdc7bea2	-0.09753157
99	0xbd6dca1f	-0.058054086
100	0xbcf09681	-0.02936864
101	0x3e8587d9	0.26080206
102	0xbe5bd4ad	-0.21467848
103	0xbd510a60	-0.051035285
104	0x3e8f5819	0.279969
105	0xbe01c614	-0.12673217
106	0x3e37b11c	0.17938656
107	0xbe3bc5f7	-0.18337236
108	0x3e8b3223	0.2718669
109	0xbc3c81e6	-0.01150558
110	0xbe616bad	-0.22013731
111	0x3e293097	0.16522442
112	0x3e177875	0.14792044
113	0xbdae7312	-0.08518042
114	0xbe8ec136	-0.27881783
115	0xbea0abaa	-0.3138097
116	0x3e871605	0.26383987
117	0x3d7e64f8	0.06210801
118	0xbe6fa177	-0.23401438
119	0xbd35f2df	-0.044421073
120	0xbcf3be39	-0.029753791
121	0xbdeaaf34	-0.114591986
122	0x3e5e9a1a	0.21738473
123	0x3e614f63	0.2200294
124	0xbd38ed9f	-0.045148488
125	0xbe06c86a	-0.1316239
126	0x3e753336	0.23945317
127	0xbd11a48d	-0.03555732
128	0xbe800890	-0.25006533
129	0xbea7e70d	-0.32793465
130	0x3dd7e427	0.105415635
131	0x3e7e7240	0.2484827
132	0xbe8ba261	-0.27272323
133	0x3c2a236f	0.010384425
134	0x3e072aa0	0.13199854
135	0x3dec91d4	0.11551252
136	0xbe4de6e9	-0.20107616
137	0x3e8719e0	0.2638693
138	0x3d13dceb	0.036099356
139	0x3e1dfe10	0.15428948
140	0xbded8092	-0.115967885
141	0x3e297a6a	0.16550604
142	0x3ea2b39c	0.31777656
143	0xbe78f7ae	-0.24313232
144	0xbe89ee2b	-0.2693952
145	0xbe193827	-0.14962827
146	0xbd0d2bdd	-0.03446566
147	0xbe516b76	-0.2045115
148	0x3e650e88	0.22368824
149	0xbde51324	-0.111852914
150	0x3d26be14	0.040708616
151	0xbe9fe7ce	-0.3123154
152	0xbe817af3	-0.25289115
153	0xbe5c363c	-0.21505064
154	0x3e91440b	0.28372225
155	0xbea6a2c0	-0.32546043
156	0xbe65ce8e	-0.22442076
157	0xbe40924b	-0.18805806
158	0x3ea81943	0.32831773
159	0x3e70e1bf	0.23523615
160	0x3e243248	0.16034806
161	0x3e6e85d0	0.23293233
162	0x3dbf22fe	0.09332846
163	0xbc57017e	-0.013122914
164	0xbdab21a3	-0.08356025
165	0x3aa9e437	0.001296169
166	0xbe0555ea	-0.13021055
167	0x3e80c510	0.25150347
168	0x3eb21935	0.34784856
169	0x3d15328c	0.03642516
170	0x3e077c22	0.13230947
171	0x3dfef5bd	0.124492146
172	0xbe8c8f01	-0.27452853
173	0xbe06153f	-0.13094042
174	0x3e96a10f	0.29419753
175	0xbd240b19	-0.040049646
176	0x3c35125a	0.011051739
177	0xbe141314	-0.14460403
178	0xbde409fa	-0.111347154
179	0xbc77ffd1	-0.015136675
180	0xbc26d59c	-0.010182764
181	0x3b9d2285	0.004795375
182	0xbe66f1b8	-0.22553146
183	0xbe833cc8	-0.2563231
184	0x3e86edb7	0.26353237
185	0xbce4d3f6	-0.027933102
186	0x3e6c9bc4	0.23106295
187	0x3d9a326b	0.07529148
188	0x3db9f539	0.09079976
189	0x3d8a0545	0.06739286
190	0xbea1787c	-0.31537235
191	0x3ea462be	0.32106584
192	0x3e8f0b88	0.27938485
193	0x3ea1facc	0.31636655
194	0x3e4b0ec3	0.1982985
195	0xbe05983c	-0.13046354
196	0xbe8e56ac	-0.278005
197	0x3eb0b0be	0.34509844
198	0x3e377bbf	0.17918299
199	0xbcae75f1	-0.021296473
200	0xbe8d34a7	-0.27579233
201	0xbe747fec	-0.23876923
202	0x3e8d43d6	0.27590817
203	0xbe99b0f0	-0.30017805
204	0xbe491694	-0.19637519
205	0xbe9e5e90	-0.3093152
206	0xbe99c065	-0.30029598
207	0xbd9f2ff6	-0.0777282
208	0xbe947860	-0.2899809
209	0x3dcd09b6	0.10011618
210	0xbe36e574	-0.17860967
211	0xbe8d78ff	-0.27631375
212	0xbe7d7f62	-0.24755624
213	0x3dac81ee	0.084232196
214	0xbd2cd728	-0.042197376
215	0x3e9e89fe	0.30964655
216	0xbc19932a	-0.009373466
217	0x3e90bad1	0.2826753
218	0x3d69cab5	0.057078082
219	0xbe054aa8	-0.1301676
220	0xbd396948	-0.04526642
221	0xbc9888f0	-0.018619984
222	0xbe97e69b	-0.29668126
223	0xbdbb5da0	-0.09148717
224	0x3dc50b6e	0.09621321
225	0xbe3cc0db	-0.18432944
226	0xbbf10341	-0.007355124
227	0x3d9772e7	0.07394963
228	0xbc8c17e0	-0.017101228
229	0xbe604668	-0.21901858
230	0xbb38bd8a	-0.0028189146
231	0x3e62900b	0.2212526
232	0x3e96f71a	0.294854
233	0xbd0b6b6c	-0.034037992
234	0x3ea264bd	0.31717482
235	0x3e754bed	0.23954745
236	0x3c7ad677	0.0153099215
237	0xbc900932	-0.01758251
238	0xbd9b89a7	-0.075946145
239	0xbe8f5eb7	-0.2800195
240	0xbe2af302	-0.16694263
241	0x3e996815	0.2996222
242	0xbeaac323	-0.33352003
243	0x3e9bb1de	0.3040914
244	0x3e0377fd	0.1283874
245	0xbe4e57d7	-0.20150696
246	0xbe821c05	-0.25412002
247	0xbe86deb8	-0.26341796
248	0xbdedeff2	-0.116180316
249	0xbe11cbe4	-0.14237934
250	0xbde21ccf	-0.11040651
251	0xbe94b3d3	-0.29043445
252	0xbe244e0d	-0.16045399
253	0xbe002459	-0.12513866
254	0x3df10b2d	0.1176971
255	0xbd7e0cd9	-0.06202397

conv1.bias f4 [32]
0	0x3e84f3f1	0.25967363
1	0x3ea4f44c	0.32217634
2	0xbd29e881	-0.0414815
3	0xbe00cdb0	-0.12578464
4	0x3e83d612	0.2574926
5	0xbeabd706	-0.33562487
6	0x3e423608	0.18965924
7	0x3e63202b	0.2218024
8	0xbe1b81b0	-0.1518619
9	0xbd382ee2	-0.044966586
10	0x3e7c22cd	0.2462265
11	0x3dba379d	0.09092639
12	0xbd25eb23	-0.040507447
13	0x3daf79d4	0.08568159
14	0x3da060c8	0.078309596
15	0x3e882d27	0.26596949
16	0x3d9b44d3	0.075814866
17	0xbd72ee89	-0.059309516
18	0xbe84a0eb	-0.2590402
19	0xbe1c1fc5	-0.15246494
20	0x3dc2e634	0.09516564
21	0xbea39ecb	-0.31957087
22	0x3da48d29	0.08034737
23	0x3e55e41e	0.20887801
24	0x3e54e326	0.20789775
25	0x3e95ff91	0.29296544
26	0x3e806232	0.25074917
27	0xbe45f330	-0.1933105
28	0x3e58f89e	0.2118859
29	0xbd491b1c	-0.04909812
30	0x3da32534	0.0796608
31	0x3e98dc1f	0.2985544

bn1.weight f4 [32]
0	0x3f80779c	1.0036502
1	0x3f807c0f	1.003786
2	0x3f7ed8d1	0.99549586
3	0x3f7ffe08	0.99996996
4	0x3f802fc7	1.001458
5	0x3f80c95a	1.0061448
6	0x3f8000ec	1.0000281
7	0x3f80354f	1.0016268
8	0x3f801661	1.000683
9	0x3f804485	1.002091
10	0x3f7fbd48	0.99898195
11	0x3f7f901b	0.9982926
12	0x3f803273	1.0015396
13	0x3f7f2fef	0.99682516
14	0x3f7d3a09	0.9891668
15	0x3f8026fa	1.0011895
16	0x3f8034b2	1.0016081
17	0x3f804fe7	1.0024384
18	0x3f807128	1.0034533
19	0x3f7f25d4	0.99667096
20	0x3f7dc11d	0.9912279
21	0x3f7f29ca	0.9967314
22	0x3f80c58d	1.0060288
23	0x3f803c3e	1.0018384
24	0x3f7e75ce	0.99398506
25	0x3f80b12f	1.0054072
26	0x3f806f68	1.0033998
27	0x3f81194d	1.0085846
28	0x3f7f7c8a	0.99799407
29	0x3f803f71	1.0019361
30	0x3f7f3eaa	0.9970499
31	0x3f7c7b5e	0.98625743

bn1.bias f4 [32]
0	0x3ad6c0df	0.0016384384
1	0x3c869bb3	0.016431665
2	0x3b8bd863	0.0042677387
3	0x39ba4945	0.00035531275
4	0xbb607e31	-0.0034254903
5	0xbabcbcbc	-0.0014399509
6	0x3bc4632b	0.005993267
7	0xb96bf4fa	-0.00022502607
8	0x3b0266eb	0.001989777
9	0xbb9b6429	-0.0047421646
10	0x3b2451b0	0.0025073104
11	0xbb3d260a	-0.0028861784
12	0x3ca5a0fa	0.020218361
13	0x3c4a2b90	0.012339488
14	0x3c692c5b	0.014231767
15	0x3bd0e44b	0.006374871
16	0xbb3e9945	-0.0029083055
17	0x3b2df3fa	0.0026543126
18	0xba86489d	-0.0010245029
19	0x3aacad41	0.0013174192
20	0xbba6f8e2	-0.005095587
21	0xbb1aee37	-0.0023640522
22	0xbb3d6641	-0.002890006
23	0x38e5f91f	0.00010965973
24	0x3c964bbe	0.018346664
25	0x3b2dfca5	0.0026548293
26	0x3a8a777d	0.0010564175
27	0xbb0e7e3f	-0.002174273
28	0x3b756ff3	0.003745076
29	0x3b017820	0.0019755438
30	0x3be16272	0.0068781907
31	0xbb50f9e8	-0.0031887237

bn1.running_mean f4 [32]
0	0xc0d13d15	-6.5387063
1	0x40262197	2.5958002
2	0x4122fbeb	10.186503
3	0xc1464b69	-12.393411
4	0xc1920d4a	-18.256489
5	0xc20eadcd	-35.669727
6	0xc2491d87	-50.278835
7	0x41d50d62	26.631535
8	0xc0b3437a	-5.601987
9	0x41e0315e	28.024105
10	0xc15d091e	-13.814726
11	0xc00c2120	-2.1895218
12	0x401aafec	2.4169874
13	0x408290fb	4.080198
14	0x40c11f5a	6.035077
15	0xc1999174	-19.196022
16	0x42289f49	42.155552
17	0xc1381966	-11.506201
18	0xc1c9a1b9	-25.203966
19	0x41329ae9	11.16282
20	0xc0b9b891	-5.80378
21	0xc1ffd652	-31.979649
22	0x423b67fd	46.85155
23	0x41c71432	24.884861
24	0x40d065d7	6.5124316
25	0xc093eb7c	-4.6224957
26	0x3edee113	0.43531093
27	0x42152d56	37.294273
28	0xc1212532	-10.071581
29	0xc225e4f2	-41.47358
30	0xc173241e	-15.196318
31	0x41a1928c	20.196556

bn1.running_var f4 [32]
0	0x41115ac9	9.084664
1	0x411def9a	9.870996
2	0x41f2f780	30.37085
3	0x41c129a5	24.145334
4	0x4288f2ed	68.474464
5	0x430d35a8	141.2096
6	0x4383d73b	263.6815
7	0x429ed526	79.416306
8	0x41417143	12.090152
9	0x42bc3203	94.09768
10	0x422332d4	40.799637
11	0x41a29c39	20.32628
12	0x415fdde7	13.991675
13	0x4142e88e	12.181776
14	0x4186f886	16.87135
15	0x424059f7	48.087856
16	0x4338f963	184.97417
17	0x422143d1	40.316227
18	0x42996c10	76.71106
19	0x41d8d0f7	27.102034
20	0x418f3406	17.900402
21	0x430ca5d7	140.64781
22	0x437bcf8c	251.81073
23	0x42b48ab4	90.270905
24	0x41b068d4	22.051186
25	0x416c550e	14.770765
26	0x421485e0	37.130737
27	0x431f25be	159.14743
28	0x41b2b602	22.338871
29	0x433cf28a	188.94742
30	0x4200e31f	32.221798
31	0x4288d876	68.422775

conv2.weight f4 [64, 32, 3, 3]
0	0x3d6163fc	0.055026993
1	0xbb1ce7a8	-0.0023941789
2	0x3c0a1498	0.0084277615
3	0x3cad599f	0.021160899
4	0x3c954a6f	0.01822397
5	0xbc3c3e7d	-0.011489508
6	0x3d7cd363	0.06172503
7	0xbd07da7d	-0.03316735
8	0x3d59100f	0.05299383
9	0x3c187b28	0.0093067065
10	0xbb070420	-0.0020601824
11	0xbd112fe6	-0.03544607
12	0x3d59ed4a	0.053204812
13	0xbc2ed07f	-0.0106698265
14	0x3c1c3a25	0.009535347
15	0xbc5f3d08	-0.013625391
16	0x3d47b560	0.048756957
17	0x3cb18345	0.02166904
18	0x3d522b31	0.05131072
19	0x3c3bd25f	0.011463731
20	0xbd531d2d	-0.051541496
21	0x3c5925c5	0.013253634
22	0xbd038211	-0.032106463
23	0x3d389f51	0.04507381
24	0xb9441ae9	-0.00018702041
25	0x3c14f1d9	0.009090864
26	0x3c4d512b	0.012531559
27	0x3cf823d2	0.030290518
28	0xbd700974	-0.058602765
29	0xbcc6a9df	-0.024250923
30	0x3be144f8	0.006874677
31	0x3d3ef235	0.046617705
32	0xbd56c0b4	-0.05242987
33	0x3c9fd789	0.019511955
34	0x3a2fb14c	0.00067021395
35	0x3d6355bc	0.055501685
36	0x3cea7332	0.028619383
37	0xbd238c2e	-0.039928608
38	0xbc8828d2	-0.016621027
39	0xbc9d6f85	-0.019218216
40	0x3b429f86	0.0029697134
41	0xbd24ccec	-0.04023449
42	0xbd6f3837	-0.05840322
43	0xbd1ca72e	-0.038245372
44	0x3be7ffe1	0.0070800637
45	0xbd13a451	-0.036045376
46	0xbd362126	-0.044465207
47	0x3d116e44	0.035505548
48	0x3d52ab71	0.05143303
49	0xbcaa44c8	-0.02078475
50	0x3c0b5743	0.0085046915
51	0xbc7ecbf4	-0.015551556
52	0x3cd89ce1	0.026441993
53	0xbd441c78	-0.047878712
54	0x3cf50f0c	0.029914401
55	0x3d532668	0.0515503
56	0xbc68514b	-0.014179538
57	0x3cf3b010	0.02974704
58	0x3c14cfea	0.009082774
59	0x3d60e679	0.054907296
60	0x3cda5275	0.026650647
61	0xbd755003	-0.05989076
62	0xbd7b787f	-0.06139421
63	0xbd3ccfb7	-0.04609653
64	0x3cb40951	0.021977099
65	0xbccf23fc	-0.025285713
66	0xbc4e83d9	-0.012604677
67	0x3ca81179	0.020516144
68	0x3bd6c25b	0.0065539307
69	0x3d0ff065	0.035141367
70	0xbcfdcb40	-0.030980706
71	0xbd32c658	-0.043646187
72	0x3c31e592	0.0108579565
73	0xbc3a3065	-0.011364077
74	0xbc8c386a	-0.017116744
75	0xbb94dfbd	-0.0045432732
76	0xbadf6745	-0.0017044327
77	0xbcd5041d	-0.026002938
78	0x3d36b678	0.04460761
79	0x3d2d0f23	0.042250764
80	0x3d27b718	0.040946096
81	0x3c1130af	0.008861705
82	0xbd4812e8	-0.048846155
83	0xbd606867	-0.054787066
84	0xbd7279a5	-0.05919804
85	0x3b0d2515	0.0021536995
86	0x3d3d123a	0.04615996
87	0xbc8dda97	-0.017316146
88	0xbcb03618	-0.021510169
89	0xbd5ee1c1	-0.054414514
90	0xbd7673ab	-0.060168903
91	0xbd213147	-0.039353635
92	0xbc585390	-0.013203517
93	0x393eafcf	0.00018185306
94	0xbc653c4f	-0.0139914295
95	0x3d57dbbc	0.05269979
96	0x3ca31b29	0.019910412
97	0xbd4b38aa	-0.049614586
98	0xbc0ae09c	-0.008476403
99	0x3c45cfff	0.012073516
100	0x3d3a60a1	0.04550231
101	0xbc5581db	-0.013031448
102	0xbb7f21d8	-0.0038930085
103	0x3b9b41bd	0.004738061
104	0xbd018563	-0.031621348
105	0xbd5e9927	-0.054345276
106	0x3b35de90	0.0027751066
107	0x3c2cd13c	0.010547932
108	0xbd445cdd	-0.047940124
109	0x3cb9b47f	0.022669075
110	0x3d28aa13	0.04117782
111	0xbd757ac9	-0.05993155
112	0xbd5c5e34	-0.053800777
113	0xbcca8b56	-0.024724644
114	0xbd03a632	-0.032140918
115	0x3d006791	0.03134877
116	0x3d07da59	0.033167217
117	0xbd5e4dbf	-0.054273363
118	0x3d384df0	0.044996202
119	0xbcbf21ed	-0.023331607
120	0xbc0986fa	-0.008393997
121	0xbae0fd6c	-0.0017165369
122	0xbd3e175b	-0.046408992
123	0x3d62b51a	0.055348493
124	0x3bbfb398	0.0058502667
125	0xba42ae56	-0.0007426491
126	0x3d2a5d72	0.041593023
127	0xbd535851	-0.051597897
128	0x3c8e8921	0.017399373
129	0x3d65aa06	0.05607035
130	0x3cace980	0.021107435
131	0x3d45c564	0.04828395
132	0xbd5e876f	-0.05432838
133	0x3c3a9ece	0.011390401
134	0x3d068c81	0.03284884
135	0xbd44c1b5	-0.048036296
136	0x39e14b3d	0.000429714
137	0xbc58a139	-0.013222032
138	0xbd2616b0	-0.04054898
139	0x3d225f78	0.039641827
140	0xbc2391b1	-0.009983466
141	0xbd04f4d3	-0.032460045
142	0x3c6cda06	0.014456278
143	0xbd4532fb	-0.048144322
144	0x3d08694c	0.033303544
145	0x3c9fe2fe	0.019517418
146	0x3d5516c5	0.052023668
147	0xbd0b12bd	-0.033953417
148	0xbc074019	-0.008255028
149	0xbcd5b1e6	-0.026085805
150	0xbd1e2cf3	-0.038617086
151	0xbd28c5b1	-0.04120416
152	0x3cadb364	0.021203704
153	0x3c9114f1	0.017710181
154	0x3c35ba43	0.011091772
155	0xbc13abd0	-0.009013131
156	0x3cbc6028	0.02299507
157	0x3c20e6c4	0.009820644
158	0xbd610324	-0.054934636
159	0xbbb60396	-0.0055546267
160	0xbc130190	-0.0089725405
161	0xbc78efd3	-0.015193897
162	0x3d5690a8	0.05238405
163	0x3bd537c6	0.006506893
164	0xbd10a415	-0.03531273
165	0xbc8e58a7	-0.017376257
166	0xbc2f2a0e	-0.010691179
167	0xbd6e914b	-0.05824403
168	0xbcb8bf67	-0.022552205
169	0xbcab7eb9	-0.02093445
170	0xbc4c3202	-0.012463095
171	0x3d3246f4	0.043524697
172	0xbcab8dd9	-0.020941662
173	0x3d40c042	0.04705835
174	0xbd2e2491	-0.04251534
175	0x3d3af82a	0.045646824
176	0xbd26f2e5	-0.040758986
177	0x3cc7e0a4	0.02439911
178	0x3d4038fc	0.046929345
179	0xbd43c06b	-0.047790926
180	0x3c83fbd0	0.016111284
181	0x3cd8036a	0.026368815
182	0xbd205024	-0.039138928
183	0xbd6c8e3c	-0.057752833
184	0xbbeb68a4	-0.007184105
185	0xbd5eec4e	-0.054424576
186	0xbd699786	-0.05702927
187	0x3bcc356b	0.006231954
188	0xbc5d927d	-0.013523695
189	0xbd1e5382	-0.038653858
190	0xbd58f95f	-0.052972194
191	0xbcc1e9fb	-0.02367114
192	0xbcc08839	-0.023502456
193	0x3c56f928	0.013120927
194	0x3ce729c4	0.028218158
195	0x3c6809ad	0.014162463
196	0xbd36981e	-0.044578664
197	0xbc79d932	-0.015249537
198	0x3d29804e	0.041382127
199	0xbce49e5d	-0.027907545
200	0x3d5afd0c	0.05346398
201	0xbd18ef3b	-0.037337523
202	0xbcb25cb0	-0.021772712
203	0xbd75ac7f	-0.05997896
204	0x3d13703f	0.035995718
205	0xbcd3d333	-0.025857544
206	0xbbfe80d5	-0.007766823
207	0xbc8199e9	-0.01582046
208	0x3cb73ea3	0.022368735
209	0x3d171084	0.036880985
210	0x3c8d7918	0.017269656
211	0x3ca7094e	0.020390179
212	0x3d1bc525	0.03802981
213	0xbb96721c	-0.0045912396
214	0x3c7892f5	0.015171756
215	0xbc8e91c1	-0.017403485
216	0xbd58fe53	-0.052976917
217	0xbb88ec18	-0.004178535
218	0x3cf9f4ba	0.030512203
219	0xbd61d67e	-0.055136196
220	0x3ce7e3d9	0.028306888
221	0xbc76704d	-0.015041423
222	0x3d608fe6	0.054824732
223	0xbcd03ae9	-0.025418716
224	0x3c14b8f0	0.009077296
225	0xbc6df531	-0.01452379
226	0x3d013f1d	0.03155433
227	0x3cd408bc	0.025883071
228	0x3d017200	0.03160286
229	0x3d55fec2	0.05224491
230	0xbcc58232	-0.024109934
231	0x3ce49c17	0.02790646
232	0xbcea72fa	-0.028619278
233	0xbd50aff6	-0.05094906
234	0xbd063dcb	-0.032773774
235	0xbc835f85	-0.016036758
236	0x3b0e3477	0.0021698752
237	0x3cdeb57f	0.027186153
238	0xbd6f030c	-0.058352515
239	0xbc0984ea	-0.008393506
240	0xbd84bcd4	-0.064813286
241	0x3ce26441	0.027635695
242	0xbd8be9e2	-0.06831719
243	0x3bceb786	0.006308499
244	0xbbf3f309	-0.0074447435
245	0x3ce9a2f5	0.028520087
246	0x3b557b2e	0.0032574642
247	0x3ca26347	0.01982273
248	0xbd7adda1	-0.061246518
249	0xbcad1791	-0.021129401
250	0xbd0baef3	-0.03410239
251	0x3a946cb1	0.0011323896
252	0x3d629a4f	0.05532294
253	0x3c41f5e7	0.011838413
254	0x3d03e96c	0.03220503
255	0xbc9501cc	-0.018189333

conv2.bias f4 [64]
0	0xbd69a8b8	-0.05704567
1	0x3cf5f621	0.03002459
2	0x3d3ac91c	0.04560195
3	0xbc98abd3	-0.01863662
4	0xbd2813a4	-0.041034356
5	0xbcfb3e47	-0.030669345
6	0x3d17d590	0.037068903
7	0x3d3b53c0	0.045734167
8	0xbd3accd7	-0.045605507
9	0xbd13874b	-0.036017697
10	0x3d3fc518	0.046818823
11	0xbcf5574d	-0.029948855
12	0xbc99dcb0	-0.01878199
13	0x3cb0a275	0.02156184
14	0xbcc39239	-0.023873435
15	0xbd646d28	-0.055768162
16	0xbd574575	-0.052556474
17	0xbc9c0ac5	-0.019048104
18	0x3bebb729	0.0071934653
19	0x3d0cc859	0.034370754
20	0x3d32c895	0.04364832
21	0x3d218308	0.0394316
22	0x3d715c10	0.05892569
23	0x3d3ca2ef	0.046053823
24	0xba9107a4	-0.0011064899
25	0x3b8ec3ad	0.0043568225
26	0x3d1a18a3	0.03762115
27	0x3d391650	0.045187294
28	0xbcfc595b	-0.030804327
29	0xbd4da15b	-0.05020271
30	0x3d72fb12	0.05932147
31	0x3c3cd032	0.011524247
32	0x3d02750d	0.03184991
33	0xbd4a3972	-0.04937119
34	0x3d5add73	0.053433847
35	0xbd243707	-0.04009154
36	0xbd3178b5	-0.043328006
37	0xbc0eef22	-0.008724006
38	0xbb954d8b	-0.004556363
39	0xbaac2669	-0.0013134006
40	0x3cbe2212	0.023209605
41	0x3d231351	0.039813343
42	0xbc8e78ef	-0.01739165
43	0x3c8b9c10	0.01704219
44	0x3c977715	0.0184894
45	0xbba5fd2d	-0.0050655813
46	0xbc98d300	-0.0186553
47	0xbd506efc	-0.050887093
48	0xbc08a0a6	-0.008339083
49	0xbd3e4650	-0.046453774
50	0x3b7afeea	0.0038298913
51	0xbd5d566a	-0.05403749
52	0xbd497ec2	-0.04919315
53	0xba2d1004	-0.0006601813
54	0xbc6d46e7	-0.0144822365
55	0xbd389479	-0.04506347
56	0x3c28ac9a	0.010295058
57	0xbb943c8c	-0.0045238193
58	0x3d3a4660	0.04547727
59	0xbd1ed3ee	-0.03877633
60	0xbcfafa9d	-0.03063708
61	0x3d3969bb	0.045266848
62	0xbd5c6726	-0.053809308
63	0xbc8e2d3d	-0.017355556

bn2.weight f4 [64]
0	0x3f7feb30	0.9996824
1	0x3f814f82	1.0102389
2	0x3f7f2c5f	0.9967708
3	0x3f7d0029	0.9882837
4	0x3f7ecaa0	0.9952793
5	0x3f80e2e0	1.0069237
6	0x3f80b542	1.0055315
7	0x3f7f7b8a	0.9979788
8	0x3f801949	1.0007716
9	0x3f8067a4	1.0031629
10	0x3f81b2db	1.0132707
11	0x3f802787	1.0012063
12	0x3f80a4dc	1.0050311
13	0x3f8047e6	1.0021942
14	0x3f7f940c	0.99835277
15	0x3f7cde77	0.98776954
16	0x3f801aef	1.000822
17	0x3f7fa171	0.99855715
18	0x3f7c3c8f	0.98529905
19	0x3f801832	1.0007384
20	0x3f7d9e1c	0.9906938
21	0x3f812fbf	1.0092696
22	0x3f7de18a	0.9917227
23	0x3f7e76db	0.9940011
24	0x3f8082bc	1.0039897
25	0x3f7f3afd	0.99699384
26	0x3f7e0208	0.9922185
27	0x3f806d2a	1.0033314
28	0x3f8076fa	1.0036309
29	0x3f7e923b	0.9944188
30	0x3f7cb92b	0.98720044
31	0x3f80ebe3	1.0071987
32	0x3f7fbbc5	0.9989589
33	0x3f802662	1.0011714
34	0x3f7f582e	0.99743927
35	0x3f8073de	1.003536
36	0x3f7ee67f	0.9957046
37	0x3f7ec2e9	0.9951616
38	0x3f7fe9a8	0.99965906
39	0x3f80f813	1.0075706
40	0x3f81c229	1.0137378
41	0x3f7fa1ec	0.9985645
42	0x3f7fc7ab	0.99914044
43	0x3f7ff149	0.99977547
44	0x3f7f8541	0.99812704
45	0x3f7fa26c	0.9985721
46	0x3f804b59	1.0022994
47	0x3f7f0fbc	0.99633384
48	0x3f7f8454	0.9981129
49	0x3f7bce09	0.9836126
50	0x3f7fbddd	0.99899083
51	0x3f818375	1.0118243
52	0x3f7fbf53	0.9990131
53	0x3f7dddcb	0.99166554
54	0x3f7d3a95	0.98917514
55	0x3f7c2690	0.9849634
56	0x3f807b3d	1.0037609
57	0x3f7e6528	0.993731
58	0x3f816526	1.0108993
59	0x3f822abc	1.0169291
60	0x3f8184ca	1.0118649
61	0x3f7e8b46	0.99431264
62	0x3f7e129c	0.99247146
63	0x3f81ae90	1.0131397

bn2.bias f4 [64]
0	0xbb088ce6	-0.0020835935
1	0x3901d3b9	0.00012381272
2	0xba446fa2	-0.0007493441
3	0xbc147b48	-0.009062596
4	0xbba0feac	-0.0049131718
5	0xbae6dc58	-0.0017613275
6	0xbbe05996	-0.006846617
7	0xbc249c9e	-0.010047106
8	0xbb0c573e	-0.0021414305
9	0x3a6d1abe	0.00090448174
10	0x3c21f64d	0.009885383
11	0xbb1bb1f1	-0.0023757184
12	0xbb3434af	-0.0027497222
13	0xbc00f073	-0.007869828
14	0xbbd99ce5	-0.0066410177
15	0xbc084e94	-0.008319516
16	0xbc37ea6b	-0.011225323
17	0xbc2d2799	-0.010568523
18	0x3a69fdd6	0.0008926069
19	0xbba8e7ef	-0.0051546018
20	0xbbfbf2a0	-0.0076888353
21	0x3bb64557	0.005562465
22	0xbb8a6f5f	-0.0042247023
23	0xbbdf86cd	-0.0068214894
24	0xbbe58543	-0.0070044114
25	0xbb261c1b	-0.0025346342
26	0xbb501716	-0.0031752042
27	0xbb9b57ca	-0.00474069
28	0xbaf2e608	-0.001853169
29	0xbbed674f	-0.0072449814
30	0xbc30e965	-0.010797833
31	0xbb27e4dc	-0.0025618589
32	0xbae294ac	-0.0017286739
33	0x3a4b14f2	0.00077469565
34	0xbbe0c517	-0.0068594324
35	0xbbbe101a	-0.0058002593
36	0xbbb0644e	-0.005383051
37	0xbb277f1f	-0.0025557948
38	0xbb25fdb9	-0.0025328232
39	0xbbfb35fb	-0.007666347
40	0xbb03bd14	-0.0020101713
41	0xbb6b77db	-0.0035929594
42	0x3b687a54	0.0035473304
43	0xbbe3afe9	-0.0069484604
44	0xbb10e20a	-0.0022107386
45	0x3b4f37e6	0.0031619011
46	0xbc2a699c	-0.010401156
47	0xbb2cfb2d	-0.002639483
48	0xbafecc77	-0.0019439597
49	0xbc461b04	-0.012091402
50	0xbc3641df	-0.011124103
51	0x3baa815a	0.005203408
52	0xbc63d8dd	-0.013906685
53	0xbbd4685c	-0.006482167
54	0xbbf30eb3	-0.007417524
55	0xbc70def2	-0.014701592
56	0xbb1efa1e	-0.0024257968
57	0xba30c974	-0.0006743886
58	0xba53f65a	-0.00080857205
59	0xbb98fa2d	-0.004668495
60	0x3b9d3cb6	0.004798497
61	0xbc13edd9	-0.009028875
62	0xbc65f565	-0.014035557
63	0x3c20b692	0.009809153

bn2.running_mean f4 [64]
0	0xbef97054	-0.48718512
1	0xbe5860c1	-0.21130659
2	0x3d2d6179	0.042329285
3	0xbf2d5c9f	-0.67719454
4	0xbedc71fd	-0.43055716
5	0xbe6b9e19	-0.23009528
6	0xbeaaf2c9	-0.33388355
7	0x3ef92979	0.48664454
8	0xbd6a90e2	-0.057267077
9	0xbe787107	-0.24261867
10	0xbd95a2fc	-0.073064774
11	0xbe91edf4	-0.28501856
12	0x3e6a2897	0.22867046
13	0xbeba36aa	-0.3636983
14	0xbe75c4aa	-0.24000803
15	0xbf91ccba	-1.1390603
16	0xbf061aae	-0.5238446
17	0x3fa14a9c	1.2600894
18	0x3d652774	0.05594583
19	0xbeb13ff3	-0.34619102
20	0xbede3bf9	-0.4340513
21	0xbd82904d	-0.063751794
22	0x3ea73ea8	0.3266499
23	0xbf187f0b	-0.5956885
24	0xbf5c2b7c	-0.8600385
25	0x3eb01d06	0.34397143
26	0xbdbf83d4	-0.09351316
27	0xbe507876	-0.20358452
28	0xbf6647ef	-0.8995351
29	0xbde7c8e2	-0.11317612
30	0x3f1c363d	0.6102026
31	0xbee00a26	-0.43757743
32	0xbeddc002	-0.43310553
33	0xbd6187d5	-0.05506118
34	0xbbaeb3a9	-0.0053314758
35	0xbf33b173	-0.7019264
36	0x3ee0c319	0.43898848
37	0xbe22e8c9	-0.15909113
38	0xbe90651f	-0.2820215
39	0xbea1cecc	-0.31603086
40	0xbe722c5c	-0.23649734
41	0x3e9a957b	0.3019217
42	0xbd890d80	-0.06692028
43	0xbd9160cb	-0.0709854
44	0x3e21c776	0.15798745
45	0xbe4d5d38	-0.20055091
46	0x3f29877c	0.6622236
47	0xbde33229	-0.11093552
48	0xbf01c0a3	-0.50684565
49	0x3f0d6586	0.5523304
50	0xbe149ff9	-0.1451415
51	0x3d9cf71c	0.0766432
52	0xbf4657bd	-0.7747763
53	0x3f121109	0.57057244
54	0x3e655738	0.22396553
55	0x3f97c7e4	1.1857877
56	0xbe8ee9ad	-0.27912655
57	0xbedb43d9	-0.428252
58	0x3e0d2514	0.13783675
59	0xbe2dbf01	-0.16967393
60	0xbe4b0c18	-0.19828832
61	0xbe20f4d4	-0.15718395
62	0xbe6b5ffe	-0.22985837
63	0xbe5b8f5e	-0.21441409

bn2.running_var f4 [64]
0	0x3dd9d43a	0.10636182
1	0x3dd0de79	0.10198683
2	0x3e41a10c	0.18909091
3	0x3e81976d	0.2531084
4	0x3e888c93	0.2666975
5	0x3e066a7d	0.1312656
6	0x3dd2e404	0.10297397
7	0x3e001808	0.12509167
8	0x3e4c805d	0.19970842
9	0x3e6e59b4	0.23276407
10	0x3da174fa	0.0788364
11	0x3e9914d6	0.2989871
12	0x3d9f96ed	0.07792459
13	0x3e04142e	0.12898323
14	0x3e4995c3	0.19686036
15	0x3f5e8ef9	0.8693691
16	0x3e37e632	0.17958906
17	0x3ea3cece	0.31993717
18	0x3de1d974	0.11027804
19	0x3e46fb27	0.19431745
20	0x3e98bb85	0.29830566
21	0x3e4f1628	0.20223296
22	0x3eea5bd1	0.45773175
23	0x3ef5451a	0.47904283
24	0x3e678005	0.2260743
25	0x3e38980d	0.18026753
26	0x3db50c85	0.088402785
27	0x3db2f766	0.08738594
28	0x3e9fe446	0.31228846
29	0x3e986db3	0.29771194
30	0x3e5906d0	0.21194005
31	0x3db3ee72	0.08785714
32	0x3e07507d	0.13214298
33	0x3e1fecd1	0.15617682
34	0x3e77124f	0.24128078
35	0x3eb26934	0.3484589
36	0x3ea63aaf	0.32466647
37	0x3e86b088	0.26306558
38	0x3da20f1f	0.0791304
39	0x3dc37acc	0.09544906
40	0x3da03d90	0.07824242
41	0x3f3c69de	0.7359904
42	0x3dc0db72	0.09416856
43	0x3e0c0b38	0.13676155
44	0x3e378187	0.17920505
45	0x3e18d1a0	0.14923716
46	0x3dfd3180	0.12362957
47	0x3e1372fb	0.1439933
48	0x3e3b6b7c	0.18302721
49	0x3e58f660	0.21187735
50	0x3dee3b78	0.116324365
51	0x3da88f88	0.082305014
52	0x3e3081f9	0.1723708
53	0x3dc02d26	0.093836114
54	0x3e8082a1	0.25099662
55	0x3ea1fb06	0.31636828
56	0x3db7a728	0.089674294
57	0x3efc136a	0.49233562
58	0x3e20ab6a	0.1569039
59	0x3d7e8db4	0.062146857
60	0x3d5ef32d	0.05443113
61	0x3e40f488	0.18843281
62	0x3e271cd2	0.16319588
63	0x3da0e236	0.07855646

conv3.weight f4 [128, 64, 3, 3]
0	0xbd08935f	-0.03334367
1	0x3cc5aa9e	0.024129208
2	0x3c517941	0.012785257
3	0xbca27e38	-0.019835576
4	0xbcaff70f	-0.021480111
5	0xbc70c1a2	-0.014694603
6	0xbd1500a0	-0.03637755
7	0x3d0a6139	0.033784125
8	0xbd29184e	-0.041282944
9	0xbc97e80e	-0.01854327
10	0x3c9bd08f	0.019020347
11	0x3b6bfe2d	0.0036009655
12	0xbd2bd5ac	-0.04195182
13	0x3cb9d5dd	0.022684986
14	0xbc6d672e	-0.014489932
15	0x3cfd9e4d	0.030959273
16	0xbd0ad6a5	-0.033896107
17	0x3ad317c5	0.0016105106
18	0x3c88a927	0.01668222
19	0xbc6dac38	-0.014506392
20	0x3d2b32f1	0.04179663
21	0xbcc667bf	-0.024219392
22	0xbc21a751	-0.0098665515
23	0x3caf3e4c	0.02139201
24	0x3d1a95a6	0.037740372
25	0xbd182855	-0.03714784
26	0xbbac3425	-0.0052552396
27	0x3c07a146	0.008278197
28	0xbd058c68	-0.032604605
29	0x3c803eae	0.015654888
30	0x3cd0b0bb	0.025474897
31	0xbcb038e8	-0.02151151
32	0xbd02fd1d	-0.03197967
33	0x3d02b4ef	0.031910833
34	0x3d22d4bf	0.03975367
35	0xbcaebcd5	-0.021330277
36	0x3d0eb6ba	0.03484223
37	0x3a3350db	0.00068403565
38	0xbcf53fc2	-0.029937629
39	0x3d12385c	0.03569828
40	0x3d15394f	0.036431607
41	0x3c11f1e9	0.0089077735
42	0xbc0dfde8	-0.008666493
43	0xbc884379	-0.016633736
44	0xbc63dc6d	-0.013907534
45	0x3c63b0a9	0.0138970995
46	0xbcc741b6	-0.024323326
47	0xbd164a4f	-0.03669196
48	0xbd1a1dd8	-0.037626117
49	0x3b9e8102	0.0048371563
50	0x3cc632af	0.02419409
51	0xbd20a19a	-0.039216615
52	0x3c894af9	0.016759383
53	0xbbed0c62	-0.007234142
54	0xbca83496	-0.020532887
55	0x3c9c2b8c	0.019063734
56	0x3d4353a8	0.047687203
57	0x3cfc7cbd	0.030821199
58	0x3b31c5cf	0.002712596
59	0x3c78708d	0.015163553
60	0xbc7d47f3	-0.015459049
61	0xbc83626b	-0.01603814
62	0x3cf56c08	0.02995874
63	0x3c581092	0.013187544
64	0xbcb8755a	-0.022516895
65	0x39b732eb	0.00034942417
66	0xbcf50870	-0.02991125
67	0xbc94c8aa	-0.01816209
68	0xbd1cac1d	-0.038250078
69	0x3c71022a	0.014709989
70	0x3d301ea5	0.042997975
71	0xbc7e8b30	-0.015536115
72	0x3c852e0b	0.016257307
73	0xbd103bfc	-0.035213456
74	0xbc4c1a42	-0.012457432
75	0x3d163ea6	0.03668084
76	0xbcda0278	-0.026612505
77	0x3d06bb98	0.032893747
78	0x3d0f0f7e	0.034926884
79	0xbd05781f	-0.03258526
80	0xba84d7a5	-0.0010135068
81	0x3d57eb01	0.05271435
82	0x3ca6fe86	0.020385038
83	0xbc852282	-0.016251806
84	0xbbe88d24	-0.0070969034
85	0x3d0a26b8	0.03372833
86	0xbba7306d	-0.0051022083
87	0xbcdeb506	-0.027185928
88	0x3d1fbe09	0.03899959
89	0x3ca72233	0.02040205
90	0x3ca59271	0.02021143
91	0x3c128287	0.008942253
92	0x3c7e12b6	0.015507391
93	0x3d10b75e	0.035331123
94	0x3cd60018	0.026123092
95	0xbc7e105b	-0.015506829
96	0xbd376c77	-0.044781175
97	0xbcba9539	-0.022776233
98	0x3d04f2fe	0.032458298
99	0xbd0a0cf6	-0.033703767
100	0xbc483cca	-0.0122215245
101	0xbc012aa9	-0.007883706
102	0xbbcb9cf9	-0.006213781
103	0x3c81d11f	0.015846787
104	0xbd09bd2e	-0.03362768
105	0x3c518681	0.012788416
106	0x3d1904a3	0.037357938
107	0x3c81461a	0.015780497
108	0xbcecc755	-0.028903643
109	0x3cf74aca	0.03018703
110	0xbc547a63	-0.012968632
111	0xbc885ef7	-0.016646845
112	0x3cc2bea0	0.023772538
113	0xbb082bef	-0.002077814
114	0xbc0a7543	-0.008450809
115	0x3c1dca74	0.009630788
116	0xbc787baf	-0.015166207
117	0xbca4b691	-0.020106586
118	0x3c56b0dd	0.013103691
119	0x3c925f1b	0.017867615
120	0xbb22ae5b	-0.0024823162
121	0x3d0ec33a	0.03485415
122	0x3b468e84	0.0030297348
123	0xbc295544	-0.01033527
124	0xbcf97d27	-0.030455185
125	0xbd48f952	-0.049065895
126	0xbc9b7911	-0.018978627
127	0xbce67f31	-0.028136821
128	0xbc287d31	-0.010283754
129	0x3c9ba494	0.018999375
130	0x3c45a909	0.012064227
131	0xbd0e415c	-0.0347303
132	0xbd1c12cc	-0.038103864
133	0xbbe929a5	-0.00711556
134	0x3c972766	0.018451404
135	0x3d02eb7e	0.031962864
136	0x3d2df736	0.042472087
137	0xba0aa5b7	-0.00052889757
138	0x3cb7bf6f	0.02243015
139	0x3cbffc7b	0.023435822
140	0xbcc50310	-0.024049312
141	0x3cec3dff	0.028838156
142	0x3d276f62	0.040877707
143	0xbcf6ff86	-0.03015114
144	0xbcd13fe9	-0.02554317
145	0xbcc7619b	-0.024338534
146	0x3cff71c8	0.031182185
147	0xbce3f038	-0.027824506
148	0xbd0c22ec	-0.03421299
149	0x3c82643d	0.015916938
150	0xbc9bce84	-0.019019373
151	0x3cc9e988	0.02464749
152	0xbc5c6e16	-0.013453981
153	0xbbbd285f	-0.005772635
154	0xbc959378	-0.018258795
155	0x3bcf605e	0.0063286265
156	0xbcac0219	-0.020997094
157	0xbce56fd3	-0.028007424
158	0x3a8813e8	0.0010381909
159	0xbce25d3a	-0.027632345
160	0xbceba57e	-0.028765436
161	0x3c4f2ff8	0.012645714
162	0x3c0a6f37	0.008449367
163	0x38b2c6fe	8.5247666e-05
164	0xba6a7cde	-0.0008944998
165	0x3d14f07d	0.03636216
166	0x3cc1ed68	0.023672774
167	0xbbd4ac10	-0.006490238
168	0xbb4ff693	-0.0031732663
169	0xbd41150b	-0.04713921
170	0xbc42be22	-0.0118861515
171	0xbca18b9e	-0.019719895
172	0xbd10c43d	-0.035343397
173	0xbb6adf20	-0.003583856
174	0x3d2d89a5	0.042367596
175	0xbc61a4b9	-0.013772183
176	0x3c471c40	0.012152731
177	0xbd01abc1	-0.031657938
178	0x3c353d9c	0.011062052
179	0x3cb6d18b	0.022316715
180	0xbd17b504	-0.037037864
181	0x3b694e63	0.00355997
182	0xba433bcd	-0.00074475707
183	0xbbe01da5	-0.0068394714
184	0xbc194633	-0.009355116
185	0xbd1a54ea	-0.037678637
186	0x3c76e070	0.0150681585
187	0xbd17c910	-0.037056983
188	0xbd1ffca5	-0.0390593
189	0x3cf97fec	0.030456506
190	0xbc335e16	-0.010947725
191	0x3c46d637	0.012136034
192	0x3cbfa4c2	0.023393992
193	0x39663522	0.00021954303
194	0x3c933586	0.017969858
195	0xbd0259e7	-0.03182402
196	0xbcb465c8	-0.02202119
197	0xbcf896ec	-0.030345403
198	0xbc7438bc	-0.014906105
199	0xbc6fb706	-0.0146310385
200	0xba8e057b	-0.0010835374
201	0xbc35849e	-0.011078982
202	0xbcca2e57	-0.0246803
203	0xbd065c0f	-0.032802638
204	0x3c0e6ddd	0.008693186
205	0x39dcfa30	0.00042148074
206	0x3bb27268	0.005445767
207	0x3ca41ac2	0.02003229
208	0xbd1027ce	-0.03519421
209	0xbc28a3f3	-0.010292995
210	0x3c7cf491	0.015439169
211	0x3c74cb48	0.014941044
212	0xbcd233bd	-0.025659436
213	0x3c5fea36	0.01366668
214	0x3cf8dcfe	0.030378815
215	0xbbdb5ee6	-0.0066946624
216	0x3cda15c2	0.026621703
217	0x3c17c797	0.0092638945
218	0x3cfe4ebe	0.031043407
219	0xbc6c2edd	-0.01441547
220	0x3cda066b	0.026614388
221	0x3d2e2cb1	0.04252309
222	0xbccdaf67	-0.025108052
223	0x3b03132d	0.0020000443
224	0xbc002ad4	-0.007822711
225	0x3d14b79d	0.03630792
226	0xbbe6f0d2	-0.007047751
227	0xbbe15b82	-0.0068773637
228	0x3b87080f	0.0041208337
229	0xbcb3020e	-0.021851566
230	0x3b84925c	0.0040457677
231	0xbcee08a1	-0.029056849
232	0x3d0accbe	0.033886664
233	0x3b9a4a0c	0.004708534
234	0xbbc0d45c	-0.00588469
235	0xbcf9338e	-0.030420091
236	0x3b9153b0	0.004435025
237	0x3cffd6fb	0.03123044
238	0x3cb64665	0.022250364
239	0x3c3175f1	0.010831342
240	0xbc93f460	-0.018060863
241	0xbb0365a2	-0.0020049592
242	0xbd23383b	-0.039848547
243	0x3c820a2e	0.015873995
244	0x3d36a4d3	0.044590782
245	0x3cd7948f	0.026315955
246	0x3d269574	0.040669873
247	0xbcf9981b	-0.030468037
248	0xbcf86c4b	-0.030325076
249	0x3b972af9	0.004613277
250	0x3d145beb	0.036220472
251	0x3cec09c2	0.028813247
252	0xbd1c5b8c	-0.038173243
253	0xbc43ab2d	-0.011942667
254	0x3cddd965	0.0270812
255	0xbc79cc79	-0.015246504

conv3.bias f4 [128]
0	0xbd06f83f	-0.03295159
1	0x3ca48d4c	0.020086907
2	0x3ca2e8b4	0.019886352
3	0x3cc500af	0.024048178
4	0xbd20b427	-0.039234307
5	0x3be08187	0.0068513784
6	0xbc679acf	-0.01413603
7	0x3c9171ca	0.017754454
8	0xbd2e5f23	-0.0425712
9	0x3d034dab	0.03205649
10	0xbd0bc5c6	-0.03412416
11	0xbcf52a0d	-0.029927278
12	0x3c821aec	0.015881978
13	0x3cc68662	0.024234
14	0x3b7178a2	0.0036845584
15	0x3bb4211f	0.0054971124
16	0xbc029e2b	-0.0079722805
17	0x3c7ed001	0.015552522
18	0x3c41fba9	0.011839786
19	0xbd0ec23d	-0.03485321
20	0x3c70f783	0.014707449
21	0xbd031f7d	-0.03201245
22	0x3c916dde	0.017752584
23	0x3c43323a	0.01191383
24	0xbac7e861	-0.001525175
25	0xbb6ff733	-0.0036615848
26	0x3cd8183c	0.026378743
27	0xbd008910	-0.031380713
28	0x3ca5d0b8	0.020241126
29	0x3cc9bef8	0.024627194
30	0xbc697f78	-0.014251582
31	0xbc23477b	-0.009965773
32	0x3d24a5a8	0.040197045
33	0xbd04d4cb	-0.032429498
34	0x3d1acad2	0.03779108
35	0xbac72ab8	-0.0015195226
36	0x3bf90d99	0.007600498
37	0xbbb49f06	-0.005512121
38	0x3ca6be67	0.020354463
39	0xbbb5968d	-0.0055416287
40	0xbc3eca18	-0.011644863
41	0xbc8746a8	-0.016513184
42	0xbbaa5830	-0.005198501
43	0xbac7f12c	-0.001525437
44	0xbc3dac78	-0.011576764
45	0xbb856234	-0.0040705446
46	0xbbaa065c	-0.0051887464
47	0xbcb668ee	-0.022266831
48	0x3cfce43f	0.030870555
49	0xbbecfbc2	-0.0072321603
50	0xbca709e7	-0.020390464
51	0x3b07305a	0.0020628185
52	0xbcb8067b	-0.022464028
53	0x3cc511c3	0.024056321
54	0xbd26c5c4	-0.040715948
55	0xbcb9a124	-0.022659846
56	0x3cc77e82	0.024352316
57	0xbcf1db87	-0.029523624
58	0x3d00ec66	0.031475447
59	0xbd0249ef	-0.03180879
60	0xbc6ba48d	-0.014382494
61	0x3c12917c	0.008945819
62	0x3c40095c	0.011720981
63	0xbb6e588f	-0.0036368703
64	0xbc10d0b9	-0.008838826
65	0xbc8ed159	-0.01743381
66	0x3d2cecab	0.04221789
67	0xbc46a80e	-0.012125028
68	0xbccec9be	-0.025242683
69	0xba6dee85	-0.00090763747
70	0xbc07aaaa	-0.008280436
71	0xba919319	-0.0011106461
72	0xbc1bc898	-0.0095082745
73	0x3c9d1700	0.019176006
74	0x3c22249b	0.009896423
75	0xbc8a938c	-0.016916059
76	0xbc297a8e	-0.010344161
77	0xbc6503f1	-0.0139779905
78	0x3b23d2ef	0.0024997552
79	0xbcea9c65	-0.028639028
80	0x3ae1ca5e	0.0017226448
81	0x3d1a45bb	0.037664156
82	0xbd1f4e73	-0.038893174
83	0xbcae969c	-0.02131205
84	0xb996bc3a	-0.0002875047
85	0x3cb02091	0.021499904
86	0xbcd53725	-0.026027272
87	0x3cf62e68	0.030051425
88	0xbcfb5e0d	-0.030684495
89	0xb700d5ee	-7.679204e-06
90	0x3c89608a	0.016769666
91	0xbca455a8	-0.020060375
92	0xbbc3195e	-0.0059539517
93	0xbc00f181	-0.007870079
94	0x3cb29a6f	0.021802155
95	0xbc1d4663	-0.009599301
96	0xbc9bd805	-0.019023905
97	0xbd1dd44e	-0.038532548
98	0x3cf4752e	0.029841032
99	0xbd0bc922	-0.034127362
100	0x3cb6e8e1	0.022327842
101	0xba0554d6	-0.0005086189
102	0x3cb88e62	0.02252883
103	0x3d016847	0.031593587
104	0xbc496cf6	-0.012294045
105	0x3d193a92	0.037409373
106	0x3b1a0e79	0.0023507162
107	0x3d16caf7	0.036814656
108	0xbd10385f	-0.03521001
109	0x3d0997f4	0.03359218
110	0x3ca30e4c	0.019904278
111	0x3c1e24ec	0.009652358
112	0xbd0db617	-0.034597483
113	0x3d229f22	0.039702542
114	0xbc083bdb	-0.008315052
115	0x3c5b3142	0.013378443
116	0x3cb2b3de	0.021814283
117	0xbccd4432	-0.025056932
118	0xbc0058f9	-0.007833713
119	0x3bbdccc2	0.0057922313
120	0x3c062ccf	0.008189394
121	0xbc586f79	-0.013210171
122	0xbcadfc6b	-0.021238526
123	0x3d209638	0.03920576
124	0x3ca4565c	0.02006071
125	0xbae1efaa	-0.0017237563
126	0x3cf7a1e1	0.030228557
127	0x3d12cdf1	0.035840932

bn3.weight f4 [128]
0	0x3f8109ca	1.0081112
1	0x3f815113	1.0102867
2	0x3f817f65	1.0117003
3	0x3f80d98b	1.0066389
4	0x3f818538	1.011878
5	0x3f8117d4	1.0085397
6	0x3f80a4e3	1.005032
7	0x3f80b295	1.0054499
8	0x3f810d20	1.008213
9	0x3f8140f6	1.009795
10	0x3f8112fb	1.0083917
11	0x3f810b20	1.008152
12	0x3f816f69	1.0112125
13	0x3f80be03	1.0057987
14	0x3f80fe65	1.0077635
15	0x3f7f6779	0.9976726
16	0x3f81c4b4	1.0138154
17	0x3f815a49	1.0105678
18	0x3f81870b	1.0119337
19	0x3f809e0b	1.0048231
20	0x3f810c2d	1.0081841
21	0x3f81d8f6	1.0144336
22	0x3f8209ac	1.0159202
23	0x3f80b407	1.005494
24	0x3f821ad2	1.0164435
25	0x3f823c10	1.017458
26	0x3f814bbc	1.0101237
27	0x3f810367	1.0079163
28	0x3f812c84	1.009171
29	0x3f819e37	1.0126408
30	0x3f80bf5f	1.0058402
31	0x3f811b79	1.0086509
32	0x3f80f99f	1.0076178
33	0x3f80a82e	1.0051324
34	0x3f8131d0	1.0093327
35	0x3f81267f	1.0089873
36	0x3f81d585	1.0143286
37	0x3f817b0d	1.0115677
38	0x3f80c5c8	1.0060358
39	0x3f820666	1.0158203
40	0x3f817384	1.0113378
41	0x3f80e27b	1.0069116
42	0x3f824142	1.0176165
43	0x3f816be7	1.0111054
44	0x3f8024f7	1.0011281
45	0x3f81648c	1.010881
46	0x3f814ff7	1.0102528
47	0x3f81970f	1.0124224
48	0x3f81602d	1.0107476
49	0x3f812003	1.0087894
50	0x3f817846	1.011483
51	0x3f8033d7	1.001582
52	0x3f813f71	1.0097486
53	0x3f821e45	1.0165488
54	0x3f80f556	1.007487
55	0x3f81fea0	1.015583
56	0x3f82298a	1.0168927
57	0x3f812086	1.008805
58	0x3f811065	1.0083128
59	0x3f8147b6	1.010001
60	0x3f80a38f	1.0049914
61	0x3f814337	1.0098637
62	0x3f80e3c4	1.0069509
63	0x3f811988	1.0085917
64	0x3f817b00	1.0115662
65	0x3f81192b	1.0085806
66	0x3f8132bf	1.0093611
67	0x3f81c629	1.0138599
68	0x3f806c27	1.0033005
69	0x3f804f7d	1.0024258
70	0x3f80ac5e	1.0052602
71	0x3f81557c	1.0104213
72	0x3f80ab69	1.005231
73	0x3f813e65	1.0097166
74	0x3f815744	1.0104756
75	0x3f80ec7c	1.0072169
76	0x3f81b943	1.0134662
77	0x3f81a363	1.0127987
78	0x3f813745	1.0094992
79	0x3f80ccf0	1.0062542
80	0x3f80e5a1	1.0070077
81	0x3f808483	1.0040439
82	0x3f812d31	1.0091916
83	0x3f80fc66	1.0077026
84	0x3f81d37e	1.0142667
85	0x3f819846	1.0124595
86	0x3f8090ad	1.0044152
87	0x3f80c445	1.0059897
88	0x3f81b781	1.0134126
89	0x3f800cab	1.0003866
90	0x3f813c0c	1.009645
91	0x3f809531	1.004553
92	0x3f813a7d	1.0095974
93	0x3f813601	1.0094606
94	0x3f813489	1.0094157
95	0x3f817bd5	1.0115916
96	0x3f8173ac	1.0113425
97	0x3f815a80	1.0105743
98	0x3f817852	1.0114844
99	0x3f817fed	1.0117165
100	0x3f80da06	1.0066535
101	0x3f818074	1.0117326
102	0x3f812eab	1.0092367
103	0x3f813c84	1.0096593
104	0x3f8169b8	1.0110388
105	0x3f81ecff	1.015045
106	0x3f7f8d55	0.9982503
107	0x3f80d57e	1.0065153
108	0x3f813d58	1.0096846
109	0x3f81adcf	1.0131167
110	0x3f80f1e0	1.0073814
111	0x3f818c41	1.0120927
112	0x3f81c2bf	1.0137557
113	0x3f810b55	1.0081583
114	0x3f816da2	1.0111582
115	0x3f815378	1.0103598
116	0x3f80bfb7	1.0058507
117	0x3f819e7a	1.0126488
118	0x3f81295d	1.0090748
119	0x3f809997	1.0046872
120	0x3f80dc0c	1.0067153
121	0x3f80ee9e	1.007282
122	0x3f81856b	1.0118841
123	0x3f816012	1.0107443
124	0x3f812290	1.0088673
125	0x3f80e3be	1.0069501
126	0x3f80e9e8	1.0071383
127	0x3f81301a	1.0092804

bn3.bias f4 [128]
0	0x3adf35a9	0.0017029542
1	0x3bf64a2f	0.0075161676
2	0x3bf6af5d	0.007528229
3	0x3b82a1b9	0.003986564
4	0x3bd652fa	0.0065406533
5	0x3bf18da3	0.0073716207
6	0x3afc8e68	0.0019268515
7	0x3b36fcfc	0.0027921787
8	0x3b8451f0	0.004038088
9	0x3bc42ac4	0.0059865434
10	0x3b9ee867	0.004849482
11	0x3b2e93dd	0.0026638426
12	0x3b5b581f	0.0033469272
13	0x3ac5748c	0.0015064641
14	0x3b77f42f	0.0037834754
15	0xbb458607	-0.00301397
16	0x3bf34a7d	0.007424651
17	0x3bb9d821	0.0056715165
18	0x3bdc5df2	0.0067250663
19	0x3b35f5e7	0.0027764977
20	0x3ba07cdb	0.0048976964
21	0x3c1a6e7f	0.009425758
22	0x3c2683a9	0.010163226
23	0x3addb085	0.0016913569
24	0x3c18e76c	0.009332519
25	0x3c48d6f5	0.012258281
26	0x3beb53c9	0.007181619
27	0x3acdbda7	0.001569678
28	0x3bc83fa2	0.0061111012
29	0x3bdea72f	0.006794832
30	0x3b6f9fa5	0.0036563661
31	0x3bb4b3be	0.005514591
32	0x3ba7afec	0.005117407
33	0x3a34327d	0.00068739784
34	0x3be0da9f	0.006861999
35	0x3bc5bc73	0.006034428
36	0x3c14492b	0.009050648
37	0x3b8d70ee	0.004316441
38	0x3a0d5400	0.000539124
39	0x3c031f6f	0.0080031
40	0x3bb709f3	0.005585903
41	0x3b2993f2	0.0025875536
42	0x3c3d6857	0.011560521
43	0x3badf3e9	0.0053086174
44	0xba747e86	-0.0009326715
45	0x3c03d9bc	0.008047517
46	0x3bdde2e8	0.006771434
47	0x3bc7adbc	0.006093709
48	0x3b8c70ae	0.0042858934
49	0x3bb23235	0.005438114
50	0x3b957a09	0.004561667
51	0xba84f5a0	-0.0010144003
52	0x3b4ddd95	0.003141259
53	0x3c3014e4	0.010747168
54	0x3b0d7793	0.0021586164
55	0x3c33ec2d	0.010981602
56	0x3c4b5fea	0.012413004
57	0x3bb9ba5c	0.0056679677
58	0x3b952232	0.0045511955
59	0x3b800fa1	0.003908113
60	0x3b240ec7	0.0025033222
61	0x3bc1ce44	0.0059144814
62	0x3b378729	0.0028004146
63	0x3b5d7c04	0.0033795843
64	0x3bae7a7b	0.0053246594
65	0x3be7dec4	0.0070761163
66	0x3ba8bef2	0.0051497156
67	0x3c08be3b	0.008346136
68	0xba54b4be	-0.0008114091
69	0xbaa7ff4a	-0.0012817171
70	0x3b34028b	0.0027467336
71	0x3b901074	0.0043964926
72	0xba81fbfc	-0.0009917016
73	0x3bcf9f09	0.006336097
74	0x3bf4d4d5	0.0074716606
75	0x3b30629d	0.0026914247
76	0x3bfc9aa7	0.0077088657
77	0x3c1951fe	0.009357927
78	0x3b88d1a4	0.0041753817
79	0x3b3416b9	0.0027479364
80	0x3a55a115	0.0008149308
81	0x3b00aaef	0.0019633134
82	0x3ba41819	0.0050077555
83	0x3b77a122	0.0037785252
84	0x3c08a88c	0.008340966
85	0x3c1692a6	0.009190237
86	0x399455fd	0.00028292826
87	0x3b33317a	0.0027342723
88	0x3c094abb	0.008379634
89	0xbab51815	-0.0013816381
90	0x3b93e9a3	0.0045139357
91	0xb9f2189b	-0.0004617617
92	0x3bdcc798	0.0067376606
93	0x3b2e1933	0.0026565313
94	0x3bd253c2	0.006418676
95	0x3b08a6b0	0.0020851307
96	0x3b7a7579	0.0038216992
97	0x3ba23ff9	0.004951474
98	0x3bdc796f	0.006728343
99	0x3bddf055	0.0067730346
100	0x3ad20edb	0.0016026156
101	0x3c0e2d39	0.008677774
102	0x3bb2ba70	0.005454354
103	0x3b9e13a7	0.00482412
104	0x3bb55ff9	0.0055351225
105	0x3c0a38d5	0.008436401
106	0xbb855902	-0.0040694484
107	0x3a963a4e	0.0011461468
108	0x3b87854e	0.004135764
109	0x3c23375f	0.009961932
110	0x3b431306	0.0029765978
111	0x3baaa4d7	0.0052076387
112	0x3bb0d2c2	0.005396218
113	0x3b89779b	0.0041951663
114	0x3bfdfdb1	0.0077511896
115	0x3bd1fb9a	0.006408167
116	0x3a959447	0.0011411988
117	0x3bda2ebd	0.0066584037
118	0x3bb1ce2a	0.005426188
119	0x3ab4b7cb	0.0013787685
120	0x3a078621	0.0005169828
121	0x3b57d475	0.003293303
122	0x3b2bbf0c	0.0026206402
123	0x3b7f207d	0.0038929277
124	0x3b7e2ad9	0.0038782863
125	0x3b063edd	0.0020484247
126	0x3b9185f6	0.004441018
127	0x3bd20c3c	0.00641015

bn3.running_mean f4 [128]
0	0x3f34cc5f	0.70624346
1	0xbf8792aa	-1.0591633
2	0xbdbb30c7	-0.09140163
3	0xbe325afa	-0.17417517
4	0x3eb17e48	0.34666657
5	0x3ce0e52e	0.027453031
6	0xbe3bf81d	-0.18356366
7	0x3ea65bfe	0.3249206
8	0x3f09a9f8	0.53774977
9	0x3eced2d9	0.4039524
10	0xbede80bc	-0.43457592
11	0xbf88849f	-1.0665473
12	0x3ed19a10	0.40937853
13	0x3eb5df40	0.3552189
14	0x3f25d8f6	0.6478418
15	0x3e59b098	0.21258771
16	0x3be83216	0.007086049
17	0x3f4c23cd	0.7974213
18	0x3e94521b	0.28968892
19	0x3e807347	0.2508795
20	0x3eb39dff	0.3508148
21	0x3e040858	0.12893808
22	0x3f0bd977	0.546287
23	0xbdbf2eb1	-0.093350776
24	0x3e5a2af2	0.21305445
25	0xbe86c228	-0.26320004
26	0xbe8cbc28	-0.27487302
27	0x3ebee48a	0.37283736
28	0x3e8f1ecd	0.27953187
29	0x3ea0b9e5	0.31391826
30	0x3ebe13e2	0.37124544
31	0x3f01df87	0.507317
32	0xbe3615ca	-0.1778175
33	0xbebd9a25	-0.37031665
34	0xbf29a346	-0.6626476
35	0xbeb67a8c	-0.3564037
36	0x3d40e2c1	0.04709125
37	0xbf80473c	-1.0021739
38	0xbf57581e	-0.8411883
39	0x3f4276d0	0.75962543
40	0xbf9f517e	-1.2446744
41	0xbeb50aa7	-0.3535969
42	0x3f1a187c	0.6019361
43	0x3f0b4b08	0.54411364
44	0xbf249f88	-0.64305925
45	0x3f1e8381	0.6191941
46	0x3e392353	0.18079881
47	0x3f0d9c71	0.55316836
48	0x3d0040ac	0.031311676
49	0x3d2355ee	0.03987687
50	0xbe85b16b	-0.26111922
51	0xbda8f3b4	-0.08249608
52	0x3eb78d14	0.35849822
53	0xbb8f5901	-0.0043746238
54	0x3f58afbe	0.8464316
55	0xbf0d5490	-0.5520716
56	0xbe701ac0	-0.23447704
57	0xbed1b561	-0.40958694
58	0x3e9a79ce	0.30171055
59	0x3dacfc88	0.08446604
60	0x3ec54915	0.3853232
61	0xbe92efcf	-0.28698584
62	0x3da236e8	0.07920629
63	0x3edb7e3f	0.42869756
64	0xbf71c66c	-0.9444339
65	0x3f863f1c	1.048801
66	0x3f5f001b	0.87109536
67	0xbe53ac98	-0.20671308
68	0x3f7114c7	0.9417233
69	0xbf614e48	-0.8801007
70	0xbf524385	-0.82134277
71	0xbf358a0d	-0.70913774
72	0x3d030122	0.031983502
73	0xbe1bff6c	-0.15234154
74	0x3c11312e	0.008861823
75	0x3f3f57e2	0.74743474
76	0x3ee41d91	0.44553807
77	0x3ed1cec4	0.40978062
78	0xbea8676b	-0.32891402
79	0xbf5678c7	-0.8377804
80	0xbd891789	-0.06693942
81	0xbd0c06a0	-0.034186006
82	0x3ea96455	0.3308436
83	0xbd34fd4d	-0.04418688
84	0x3eb5bcbc	0.35495555
85	0x3e6c57c0	0.23080349
86	0x3e6117cd	0.21981736
87	0x3f07a784	0.52989984
88	0x3e8713e7	0.26382372
89	0x3dedf113	0.11618247
90	0xbf0dfae3	-0.5546095
91	0x3f3ea918	0.74476767
92	0x3f22c023	0.6357443
93	0x3eba4546	0.36380976
94	0x3ee1221a	0.4397133
95	0x3e4ddca5	0.201037
96	0xbef2bc13	-0.47409114
97	0x3f4211a8	0.7580819
98	0xbea42e58	-0.32066607
99	0x3ecccd4a	0.40000373
100	0xbec6acc8	-0.38803697
101	0x3f432130	0.76222515
102	0xbeb73b4e	-0.35787433
103	0x3e2f6c0a	0.17131057
104	0xbd638576	-0.0555472
105	0x3e664d0e	0.22490332
106	0x3e7f9d44	0.24962336
107	0x3e69d8ce	0.2283661
108	0x3ee88963	0.45417318
109	0xbd1a4078	-0.03765914
110	0xbf520ce0	-0.82050896
111	0xbe9921aa	-0.29908496
112	0x3ed5e487	0.41775915
113	0x3eea0d36	0.45713204
114	0x3f0724da	0.52790606
115	0x3ecb40d0	0.39697886
116	0x3d4ac2bc	0.04950212
117	0x3ed5d3b8	0.4176309
118	0x3e1399c5	0.14414127
119	0xbf076d16	-0.52900827
120	0xbf44d719	-0.7689071
121	0x3d7249c5	0.059152383
122	0x3cdd86ed	0.027041877
123	0xbf8cd7bc	-1.1003337
124	0x3f20d378	0.62822676
125	0x3f082846	0.5318645
126	0xbe696034	-0.22790605
127	0x3da4cba9	0.080466576

bn3.running_var f4 [128]
0	0x3e08c744	0.13357264
1	0x3e42f963	0.19040446
2	0x3e154ff0	0.14581275
3	0x3ddb10a8	0.10696536
4	0x3e11ae82	0.14226726
5	0x3dcd0aa2	0.10011794
6	0x3dcdbab2	0.10045375
7	0x3df46a06	0.11934285
8	0x3de7ef1f	0.113249056
9	0x3dd92e68	0.106045544
10	0x3e0166d8	0.12636888
11	0x3e4eb894	0.20187598
12	0x3e2c3f9d	0.16821142
13	0x3e59adc2	0.2125769
14	0x3de383fe	0.1110916
15	0x3e680896	0.22659525
16	0x3e3469d4	0.17618495
17	0x3e03e978	0.1288203
18	0x3e47cb08	0.19511044
19	0x3df72577	0.12067693
20	0x3dd76c96	0.10518758
21	0x3e7acbee	0.24491856
22	0x3e17bfb6	0.14819226
23	0x3e1787cf	0.147979
24	0x3e2d0b22	0.16898778
25	0x3e49c620	0.19704485
26	0x3e595864	0.21225125
27	0x3e66508b	0.22491662
28	0x3e7de14b	0.24792974
29	0x3deda0f3	0.11602964
30	0x3e05b875	0.13058646
31	0x3de63384	0.112402946
32	0x3e1d4680	0.15358925
33	0x3e17a3cb	0.14808576
34	0x3e4d1ffc	0.20031732
35	0x3e1caa31	0.15299298
36	0x3e4fa518	0.20277822
37	0x3e6323bf	0.22181605
38	0x3e65213b	0.22375958
39	0x3e4968bb	0.19668858
40	0x3e600da2	0.218802
41	0x3e00be23	0.12572531
42	0x3e027514	0.12739974
43	0x3df52821	0.119705446
44	0x3e466f0a	0.19378296
45	0x3e3bf57c	0.18355364
46	0x3da167b9	0.07881112
47	0x3e0cac55	0.13737614
48	0x3e07f136	0.13275608
49	0x3e0bd9e2	0.13657334
50	0x3e6a7e6a	0.22899786
51	0x3e30ff25	0.1728483
52	0x3e62c005	0.22143562
53	0x3e2c4924	0.16824776
54	0x3e0efb93	0.13963155
55	0x3e051da1	0.12999584
56	0x3e5e896f	0.21732114
57	0x3e309a73	0.17246418
58	0x3d9ed9ad	0.07756362
59	0x3dfe2ad7	0.12410515
60	0x3e6b8f06	0.23003778
61	0x3e334b3e	0.17509171
62	0x3e0c79ba	0.1371831
63	0x3ddfffe0	0.10937476
64	0x3e6029a5	0.21890886
65	0x3e2bed5c	0.16789764
66	0x3e14a294	0.14515144
67	0x3e0178b1	0.12643696
68	0x3e0953d2	0.13410881
69	0x3e4c5ccb	0.19957273
70	0x3e336a60	0.17521048
71	0x3e560437	0.20900045
72	0x3e18effe	0.149353
73	0x3e311140	0.17291737
74	0x3e189759	0.14901485
75	0x3e2d26f5	0.16909392
76	0x3e00e184	0.12586027
77	0x3dddc2c1	0.10828162
78	0x3e0f15be	0.13973138
79	0x3e91bfda	0.28466684
80	0x3e1b68b5	0.15176661
81	0x3de9bdda	0.114131644
82	0x3dc7db8b	0.097586714
83	0x3e624f0c	0.22100466
84	0x3e1b648a	0.15175071
85	0x3e040cf0	0.1289556
86	0x3dd897e0	0.10575843
87	0x3e3a4387	0.18189822
88	0x3e05e673	0.1307619
89	0x3e186331	0.14881589
90	0x3e699616	0.2281116
91	0x3e039b28	0.12852156
92	0x3dc45e45	0.09588293
93	0x3e488dc5	0.19585331
94	0x3e77b507	0.2419015
95	0x3e6dedbb	0.23235218
96	0x3e94c5bf	0.29057118
97	0x3e36745c	0.17817825
98	0x3e047c51	0.12938048
99	0x3e0b08fc	0.13577646
100	0x3e82658a	0.25468093
101	0x3e155d07	0.14586268
102	0x3dedd9b6	0.11613791
103	0x3e002faa	0.12518182
104	0x3e8630ab	0.26209006
105	0x3e30f7a1	0.17281963
106	0x3e276695	0.16347726
107	0x3e2f7cd0	0.17137456
108	0x3e16f25a	0.14740887
109	0x3dac8adb	0.08424922
110	0x3e1bff20	0.15234041
111	0x3e5af397	0.21381985
112	0x3e44b4e3	0.19209628
113	0x3e071d35	0.13194735
114	0x3dedf553	0.116190575
115	0x3dc2bb43	0.095083736
116	0x3e285bcb	0.16441266
117	0x3dee22ce	0.11627732
118	0x3e49538e	0.1966078
119	0x3e106185	0.14099701
120	0x3e829600	0.25505066
121	0x3e27346d	0.16328593
122	0x3e8d2f12	0.27574974
123	0x3e743655	0.23848851
124	0x3e244250	0.16040921
125	0x3dce4701	0.10072137
126	0x3dbb91f0	0.09158695
127	0x3e106a43	0.14103036
